<?xml version="1.0" ?>
<net name="saved_model" version="11">
	<layers>
		<layer id="0" name="input_10" type="Parameter" version="opset1">
			<data shape="?,128,128,3" element_type="f32"/>
			<rt_info>
				<attribute name="fused_names" version="0" value="input_10"/>
				<attribute name="old_api_map_order" version="0" value="0, 2, 3, 1"/>
			</rt_info>
			<output>
				<port id="0" precision="FP32" names="Func/StatefulPartitionedCall/input/_0:0,input_10,input_10:0">
					<dim>-1</dim>
					<dim>128</dim>
					<dim>128</dim>
					<dim>3</dim>
				</port>
			</output>
		</layer>
		<layer id="1" name="StatefulPartitionedCall/model_12/sequential_43/instance_normalization_27/StatefulPartitionedCall/StatefulPartitionedCall/ReadVariableOp" type="Const" version="opset1">
			<data element_type="f32" shape="1, 32, 1, 1" offset="0" size="128"/>
			<rt_info>
				<attribute name="fused_names" version="0" value="StatefulPartitionedCall/model_12/sequential_43/instance_normalization_27/StatefulPartitionedCall/StatefulPartitionedCall/ReadVariableOp"/>
			</rt_info>
			<output>
				<port id="0" precision="FP32" names="StatefulPartitionedCall/model_12/sequential_43/instance_normalization_27/StatefulPartitionedCall/StatefulPartitionedCall/ReadVariableOp:0">
					<dim>1</dim>
					<dim>32</dim>
					<dim>1</dim>
					<dim>1</dim>
				</port>
			</output>
		</layer>
		<layer id="2" name="StatefulPartitionedCall/model_12/sequential_42/instance_normalization_26/StatefulPartitionedCall/StatefulPartitionedCall/ReadVariableOp" type="Const" version="opset1">
			<data element_type="f32" shape="1, 64, 1, 1" offset="128" size="256"/>
			<rt_info>
				<attribute name="fused_names" version="0" value="StatefulPartitionedCall/model_12/sequential_42/instance_normalization_26/StatefulPartitionedCall/StatefulPartitionedCall/ReadVariableOp"/>
			</rt_info>
			<output>
				<port id="0" precision="FP32" names="StatefulPartitionedCall/model_12/sequential_42/instance_normalization_26/StatefulPartitionedCall/StatefulPartitionedCall/ReadVariableOp:0">
					<dim>1</dim>
					<dim>64</dim>
					<dim>1</dim>
					<dim>1</dim>
				</port>
			</output>
		</layer>
		<layer id="3" name="StatefulPartitionedCall/model_12/sequential_41/instance_normalization_25/StatefulPartitionedCall/StatefulPartitionedCall/ReadVariableOp" type="Const" version="opset1">
			<data element_type="f32" shape="1, 128, 1, 1" offset="384" size="512"/>
			<rt_info>
				<attribute name="fused_names" version="0" value="StatefulPartitionedCall/model_12/sequential_41/instance_normalization_25/StatefulPartitionedCall/StatefulPartitionedCall/ReadVariableOp"/>
			</rt_info>
			<output>
				<port id="0" precision="FP32" names="StatefulPartitionedCall/model_12/sequential_41/instance_normalization_25/StatefulPartitionedCall/StatefulPartitionedCall/ReadVariableOp:0">
					<dim>1</dim>
					<dim>128</dim>
					<dim>1</dim>
					<dim>1</dim>
				</port>
			</output>
		</layer>
		<layer id="4" name="StatefulPartitionedCall/model_12/sequential_40/instance_normalization_24/StatefulPartitionedCall/StatefulPartitionedCall/ReadVariableOp" type="Const" version="opset1">
			<data element_type="f32" shape="1, 256, 1, 1" offset="896" size="1024"/>
			<rt_info>
				<attribute name="fused_names" version="0" value="StatefulPartitionedCall/model_12/sequential_40/instance_normalization_24/StatefulPartitionedCall/StatefulPartitionedCall/ReadVariableOp"/>
			</rt_info>
			<output>
				<port id="0" precision="FP32" names="StatefulPartitionedCall/model_12/sequential_40/instance_normalization_24/StatefulPartitionedCall/StatefulPartitionedCall/ReadVariableOp:0">
					<dim>1</dim>
					<dim>256</dim>
					<dim>1</dim>
					<dim>1</dim>
				</port>
			</output>
		</layer>
		<layer id="5" name="StatefulPartitionedCall/model_12/sequential_39/instance_normalization_23/StatefulPartitionedCall/StatefulPartitionedCall/ReadVariableOp" type="Const" version="opset1">
			<data element_type="f32" shape="1, 128, 1, 1" offset="1920" size="512"/>
			<rt_info>
				<attribute name="fused_names" version="0" value="StatefulPartitionedCall/model_12/sequential_39/instance_normalization_23/StatefulPartitionedCall/StatefulPartitionedCall/ReadVariableOp"/>
			</rt_info>
			<output>
				<port id="0" precision="FP32" names="StatefulPartitionedCall/model_12/sequential_39/instance_normalization_23/StatefulPartitionedCall/StatefulPartitionedCall/ReadVariableOp:0">
					<dim>1</dim>
					<dim>128</dim>
					<dim>1</dim>
					<dim>1</dim>
				</port>
			</output>
		</layer>
		<layer id="6" name="StatefulPartitionedCall/model_12/sequential_38/instance_normalization_22/StatefulPartitionedCall/StatefulPartitionedCall/ReadVariableOp" type="Const" version="opset1">
			<data element_type="f32" shape="1, 64, 1, 1" offset="2432" size="256"/>
			<rt_info>
				<attribute name="fused_names" version="0" value="StatefulPartitionedCall/model_12/sequential_38/instance_normalization_22/StatefulPartitionedCall/StatefulPartitionedCall/ReadVariableOp"/>
			</rt_info>
			<output>
				<port id="0" precision="FP32" names="StatefulPartitionedCall/model_12/sequential_38/instance_normalization_22/StatefulPartitionedCall/StatefulPartitionedCall/ReadVariableOp:0">
					<dim>1</dim>
					<dim>64</dim>
					<dim>1</dim>
					<dim>1</dim>
				</port>
			</output>
		</layer>
		<layer id="7" name="input_10/Transpose([0 3 1 2])/value40447133" type="Const" version="opset1">
			<data element_type="i64" shape="4" offset="2688" size="32"/>
			<rt_info>
				<attribute name="fused_names" version="0" value="input_10/Transpose([0 3 1 2])/value40447133"/>
			</rt_info>
			<output>
				<port id="0" precision="I64">
					<dim>4</dim>
				</port>
			</output>
		</layer>
		<layer id="8" name="input_10/Transpose([0 3 1 2])" type="Transpose" version="opset1">
			<rt_info>
				<attribute name="fused_names" version="0" value="input_10/Transpose([0 3 1 2])"/>
			</rt_info>
			<input>
				<port id="0" precision="FP32">
					<dim>-1</dim>
					<dim>128</dim>
					<dim>128</dim>
					<dim>3</dim>
				</port>
				<port id="1" precision="I64">
					<dim>4</dim>
				</port>
			</input>
			<output>
				<port id="2" precision="FP32">
					<dim>-1</dim>
					<dim>3</dim>
					<dim>128</dim>
					<dim>128</dim>
				</port>
			</output>
		</layer>
		<layer id="9" name="StatefulPartitionedCall/model_12/sequential_37/conv2d_16/Conv2D/ReadVariableOp" type="Const" version="opset1">
			<data element_type="f32" shape="32, 3, 4, 4" offset="2720" size="6144"/>
			<rt_info>
				<attribute name="fused_names" version="0" value="StatefulPartitionedCall/model_12/sequential_37/conv2d_16/Conv2D/ReadVariableOp"/>
			</rt_info>
			<output>
				<port id="0" precision="FP32" names="StatefulPartitionedCall/model_12/sequential_37/conv2d_16/Conv2D/ReadVariableOp:0">
					<dim>32</dim>
					<dim>3</dim>
					<dim>4</dim>
					<dim>4</dim>
				</port>
			</output>
		</layer>
		<layer id="10" name="StatefulPartitionedCall/model_12/sequential_37/conv2d_16/Conv2D" type="Convolution" version="opset1">
			<data strides="2, 2" dilations="1, 1" pads_begin="0, 0" pads_end="0, 0" auto_pad="same_upper"/>
			<rt_info>
				<attribute name="fused_names" version="0" value="StatefulPartitionedCall/model_12/sequential_37/conv2d_16/Conv2D"/>
			</rt_info>
			<input>
				<port id="0" precision="FP32">
					<dim>-1</dim>
					<dim>3</dim>
					<dim>128</dim>
					<dim>128</dim>
				</port>
				<port id="1" precision="FP32">
					<dim>32</dim>
					<dim>3</dim>
					<dim>4</dim>
					<dim>4</dim>
				</port>
			</input>
			<output>
				<port id="2" precision="FP32" names="StatefulPartitionedCall/model_12/sequential_37/conv2d_16/Conv2D:0">
					<dim>-1</dim>
					<dim>32</dim>
					<dim>64</dim>
					<dim>64</dim>
				</port>
			</output>
		</layer>
		<layer id="11" name="StatefulPartitionedCall/model_12/sequential_37/leaky_re_lu_16/LeakyRelu/weights44597100" type="Const" version="opset1">
			<data element_type="f32" shape="1" offset="8864" size="4"/>
			<rt_info>
				<attribute name="fused_names" version="0" value="StatefulPartitionedCall/model_12/sequential_37/leaky_re_lu_16/LeakyRelu/weights44597100"/>
			</rt_info>
			<output>
				<port id="0" precision="FP32">
					<dim>1</dim>
				</port>
			</output>
		</layer>
		<layer id="12" name="StatefulPartitionedCall/model_12/sequential_37/leaky_re_lu_16/LeakyRelu" type="PReLU" version="opset1">
			<rt_info>
				<attribute name="fused_names" version="0" value="StatefulPartitionedCall/model_12/sequential_37/leaky_re_lu_16/LeakyRelu"/>
			</rt_info>
			<input>
				<port id="0" precision="FP32">
					<dim>-1</dim>
					<dim>32</dim>
					<dim>64</dim>
					<dim>64</dim>
				</port>
				<port id="1" precision="FP32">
					<dim>1</dim>
				</port>
			</input>
			<output>
				<port id="2" precision="FP32" names="StatefulPartitionedCall/model_12/sequential_37/leaky_re_lu_16/LeakyRelu:0">
					<dim>-1</dim>
					<dim>32</dim>
					<dim>64</dim>
					<dim>64</dim>
				</port>
			</output>
		</layer>
		<layer id="13" name="StatefulPartitionedCall/model_12/sequential_38/conv2d_17/Conv2D/ReadVariableOp" type="Const" version="opset1">
			<data element_type="f32" shape="64, 32, 4, 4" offset="8868" size="131072"/>
			<rt_info>
				<attribute name="fused_names" version="0" value="StatefulPartitionedCall/model_12/sequential_38/conv2d_17/Conv2D/ReadVariableOp"/>
			</rt_info>
			<output>
				<port id="0" precision="FP32" names="StatefulPartitionedCall/model_12/sequential_38/conv2d_17/Conv2D/ReadVariableOp:0">
					<dim>64</dim>
					<dim>32</dim>
					<dim>4</dim>
					<dim>4</dim>
				</port>
			</output>
		</layer>
		<layer id="14" name="StatefulPartitionedCall/model_12/sequential_38/conv2d_17/Conv2D" type="Convolution" version="opset1">
			<data strides="2, 2" dilations="1, 1" pads_begin="0, 0" pads_end="0, 0" auto_pad="same_upper"/>
			<rt_info>
				<attribute name="fused_names" version="0" value="StatefulPartitionedCall/model_12/sequential_38/conv2d_17/Conv2D"/>
			</rt_info>
			<input>
				<port id="0" precision="FP32">
					<dim>-1</dim>
					<dim>32</dim>
					<dim>64</dim>
					<dim>64</dim>
				</port>
				<port id="1" precision="FP32">
					<dim>64</dim>
					<dim>32</dim>
					<dim>4</dim>
					<dim>4</dim>
				</port>
			</input>
			<output>
				<port id="2" precision="FP32" names="Func/StatefulPartitionedCall/model_12/sequential_38/instance_normalization_22/StatefulPartitionedCall/StatefulPartitionedCall/input/_61:0,Func/StatefulPartitionedCall/model_12/sequential_38/instance_normalization_22/StatefulPartitionedCall/input/_25:0,StatefulPartitionedCall/model_12/sequential_38/conv2d_17/Conv2D:0">
					<dim>-1</dim>
					<dim>64</dim>
					<dim>32</dim>
					<dim>32</dim>
				</port>
			</output>
		</layer>
		<layer id="15" name="40637226" type="Const" version="opset1">
			<data element_type="i64" shape="2" offset="139940" size="16"/>
			<rt_info>
				<attribute name="fused_names" version="0" value="40637226"/>
			</rt_info>
			<output>
				<port id="0" precision="I64">
					<dim>2</dim>
				</port>
			</output>
		</layer>
		<layer id="16" name="StatefulPartitionedCall/model_12/sequential_38/instance_normalization_22/StatefulPartitionedCall/StatefulPartitionedCall/moments/mean" type="ReduceMean" version="opset1">
			<data keep_dims="true"/>
			<rt_info>
				<attribute name="fused_names" version="0" value="StatefulPartitionedCall/model_12/sequential_38/instance_normalization_22/StatefulPartitionedCall/StatefulPartitionedCall/moments/mean"/>
			</rt_info>
			<input>
				<port id="0" precision="FP32">
					<dim>-1</dim>
					<dim>64</dim>
					<dim>32</dim>
					<dim>32</dim>
				</port>
				<port id="1" precision="I64">
					<dim>2</dim>
				</port>
			</input>
			<output>
				<port id="2" precision="FP32">
					<dim>-1</dim>
					<dim>64</dim>
					<dim>1</dim>
					<dim>1</dim>
				</port>
			</output>
		</layer>
		<layer id="17" name="StatefulPartitionedCall/model_12/sequential_38/instance_normalization_22/StatefulPartitionedCall/StatefulPartitionedCall/sub" type="Subtract" version="opset1">
			<data auto_broadcast="numpy"/>
			<rt_info>
				<attribute name="fused_names" version="0" value="StatefulPartitionedCall/model_12/sequential_38/instance_normalization_22/StatefulPartitionedCall/StatefulPartitionedCall/sub, StatefulPartitionedCall/model_12/sequential_38/instance_normalization_22/StatefulPartitionedCall/StatefulPartitionedCall/sub/neg_"/>
			</rt_info>
			<input>
				<port id="0" precision="FP32">
					<dim>-1</dim>
					<dim>64</dim>
					<dim>32</dim>
					<dim>32</dim>
				</port>
				<port id="1" precision="FP32">
					<dim>-1</dim>
					<dim>64</dim>
					<dim>1</dim>
					<dim>1</dim>
				</port>
			</input>
			<output>
				<port id="2" precision="FP32" names="StatefulPartitionedCall/model_12/sequential_38/instance_normalization_22/StatefulPartitionedCall/StatefulPartitionedCall/sub:0">
					<dim>-1</dim>
					<dim>64</dim>
					<dim>32</dim>
					<dim>32</dim>
				</port>
			</output>
		</layer>
		<layer id="18" name="StatefulPartitionedCall/model_12/sequential_38/instance_normalization_22/StatefulPartitionedCall/StatefulPartitionedCall/moments/SquaredDifference" type="SquaredDifference" version="opset1">
			<data auto_broadcast="numpy"/>
			<rt_info>
				<attribute name="fused_names" version="0" value="StatefulPartitionedCall/model_12/sequential_38/instance_normalization_22/StatefulPartitionedCall/StatefulPartitionedCall/moments/SquaredDifference"/>
			</rt_info>
			<input>
				<port id="0" precision="FP32">
					<dim>-1</dim>
					<dim>64</dim>
					<dim>32</dim>
					<dim>32</dim>
				</port>
				<port id="1" precision="FP32">
					<dim>-1</dim>
					<dim>64</dim>
					<dim>1</dim>
					<dim>1</dim>
				</port>
			</input>
			<output>
				<port id="2" precision="FP32" names="StatefulPartitionedCall/model_12/sequential_38/instance_normalization_22/StatefulPartitionedCall/StatefulPartitionedCall/moments/SquaredDifference:0">
					<dim>-1</dim>
					<dim>64</dim>
					<dim>32</dim>
					<dim>32</dim>
				</port>
			</output>
		</layer>
		<layer id="19" name="40697175" type="Const" version="opset1">
			<data element_type="i64" shape="2" offset="139940" size="16"/>
			<rt_info>
				<attribute name="fused_names" version="0" value="40697175"/>
			</rt_info>
			<output>
				<port id="0" precision="I64">
					<dim>2</dim>
				</port>
			</output>
		</layer>
		<layer id="20" name="StatefulPartitionedCall/model_12/sequential_38/instance_normalization_22/StatefulPartitionedCall/StatefulPartitionedCall/moments/variance" type="ReduceMean" version="opset1">
			<data keep_dims="true"/>
			<rt_info>
				<attribute name="fused_names" version="0" value="StatefulPartitionedCall/model_12/sequential_38/instance_normalization_22/StatefulPartitionedCall/StatefulPartitionedCall/moments/variance"/>
			</rt_info>
			<input>
				<port id="0" precision="FP32">
					<dim>-1</dim>
					<dim>64</dim>
					<dim>32</dim>
					<dim>32</dim>
				</port>
				<port id="1" precision="I64">
					<dim>2</dim>
				</port>
			</input>
			<output>
				<port id="2" precision="FP32" names="StatefulPartitionedCall/model_12/sequential_38/instance_normalization_22/StatefulPartitionedCall/StatefulPartitionedCall/moments/variance:0">
					<dim>-1</dim>
					<dim>64</dim>
					<dim>1</dim>
					<dim>1</dim>
				</port>
			</output>
		</layer>
		<layer id="21" name="StatefulPartitionedCall/model_12/sequential_38/instance_normalization_22/StatefulPartitionedCall/StatefulPartitionedCall/add/y" type="Const" version="opset1">
			<data element_type="f32" shape="1, 1, 1, 1" offset="139956" size="4"/>
			<rt_info>
				<attribute name="fused_names" version="0" value="StatefulPartitionedCall/model_12/sequential_38/instance_normalization_22/StatefulPartitionedCall/StatefulPartitionedCall/add/y"/>
			</rt_info>
			<output>
				<port id="0" precision="FP32" names="StatefulPartitionedCall/model_12/sequential_38/instance_normalization_22/StatefulPartitionedCall/StatefulPartitionedCall/add/y:0">
					<dim>1</dim>
					<dim>1</dim>
					<dim>1</dim>
					<dim>1</dim>
				</port>
			</output>
		</layer>
		<layer id="22" name="StatefulPartitionedCall/model_12/sequential_38/instance_normalization_22/StatefulPartitionedCall/StatefulPartitionedCall/add" type="Add" version="opset1">
			<data auto_broadcast="numpy"/>
			<rt_info>
				<attribute name="fused_names" version="0" value="StatefulPartitionedCall/model_12/sequential_38/instance_normalization_22/StatefulPartitionedCall/StatefulPartitionedCall/add"/>
			</rt_info>
			<input>
				<port id="0" precision="FP32">
					<dim>-1</dim>
					<dim>64</dim>
					<dim>1</dim>
					<dim>1</dim>
				</port>
				<port id="1" precision="FP32">
					<dim>1</dim>
					<dim>1</dim>
					<dim>1</dim>
					<dim>1</dim>
				</port>
			</input>
			<output>
				<port id="2" precision="FP32" names="StatefulPartitionedCall/model_12/sequential_38/instance_normalization_22/StatefulPartitionedCall/StatefulPartitionedCall/add:0">
					<dim>-1</dim>
					<dim>64</dim>
					<dim>1</dim>
					<dim>1</dim>
				</port>
			</output>
		</layer>
		<layer id="23" name="312" type="Const" version="opset1">
			<data element_type="f32" shape="1, 1, 1, 1" offset="139960" size="4"/>
			<rt_info>
				<attribute name="fused_names" version="0" value="312"/>
			</rt_info>
			<output>
				<port id="0" precision="FP32">
					<dim>1</dim>
					<dim>1</dim>
					<dim>1</dim>
					<dim>1</dim>
				</port>
			</output>
		</layer>
		<layer id="24" name="StatefulPartitionedCall/model_12/sequential_38/instance_normalization_22/StatefulPartitionedCall/StatefulPartitionedCall/Rsqrt/pow_" type="Power" version="opset1">
			<data auto_broadcast="numpy"/>
			<rt_info>
				<attribute name="fused_names" version="0" value="StatefulPartitionedCall/model_12/sequential_38/instance_normalization_22/StatefulPartitionedCall/StatefulPartitionedCall/Rsqrt/pow_"/>
			</rt_info>
			<input>
				<port id="0" precision="FP32">
					<dim>-1</dim>
					<dim>64</dim>
					<dim>1</dim>
					<dim>1</dim>
				</port>
				<port id="1" precision="FP32">
					<dim>1</dim>
					<dim>1</dim>
					<dim>1</dim>
					<dim>1</dim>
				</port>
			</input>
			<output>
				<port id="2" precision="FP32" names="StatefulPartitionedCall/model_12/sequential_38/instance_normalization_22/StatefulPartitionedCall/StatefulPartitionedCall/Rsqrt:0">
					<dim>-1</dim>
					<dim>64</dim>
					<dim>1</dim>
					<dim>1</dim>
				</port>
			</output>
		</layer>
		<layer id="25" name="StatefulPartitionedCall/model_12/sequential_38/instance_normalization_22/StatefulPartitionedCall/StatefulPartitionedCall/mul" type="Multiply" version="opset1">
			<data auto_broadcast="numpy"/>
			<rt_info>
				<attribute name="fused_names" version="0" value="StatefulPartitionedCall/model_12/sequential_38/instance_normalization_22/StatefulPartitionedCall/StatefulPartitionedCall/mul"/>
			</rt_info>
			<input>
				<port id="0" precision="FP32">
					<dim>-1</dim>
					<dim>64</dim>
					<dim>32</dim>
					<dim>32</dim>
				</port>
				<port id="1" precision="FP32">
					<dim>-1</dim>
					<dim>64</dim>
					<dim>1</dim>
					<dim>1</dim>
				</port>
			</input>
			<output>
				<port id="2" precision="FP32" names="StatefulPartitionedCall/model_12/sequential_38/instance_normalization_22/StatefulPartitionedCall/StatefulPartitionedCall/mul:0">
					<dim>-1</dim>
					<dim>64</dim>
					<dim>32</dim>
					<dim>32</dim>
				</port>
			</output>
		</layer>
		<layer id="26" name="StatefulPartitionedCall/model_12/sequential_38/instance_normalization_22/StatefulPartitionedCall/StatefulPartitionedCall/mul_1" type="Multiply" version="opset1">
			<data auto_broadcast="numpy"/>
			<rt_info>
				<attribute name="fused_names" version="0" value="StatefulPartitionedCall/model_12/sequential_38/instance_normalization_22/StatefulPartitionedCall/StatefulPartitionedCall/mul_1"/>
			</rt_info>
			<input>
				<port id="0" precision="FP32">
					<dim>1</dim>
					<dim>64</dim>
					<dim>1</dim>
					<dim>1</dim>
				</port>
				<port id="1" precision="FP32">
					<dim>-1</dim>
					<dim>64</dim>
					<dim>32</dim>
					<dim>32</dim>
				</port>
			</input>
			<output>
				<port id="2" precision="FP32" names="StatefulPartitionedCall/model_12/sequential_38/instance_normalization_22/StatefulPartitionedCall/StatefulPartitionedCall/mul_1:0">
					<dim>-1</dim>
					<dim>64</dim>
					<dim>32</dim>
					<dim>32</dim>
				</port>
			</output>
		</layer>
		<layer id="27" name="StatefulPartitionedCall/model_12/sequential_38/instance_normalization_22/StatefulPartitionedCall/StatefulPartitionedCall/add_1/ReadVariableOp" type="Const" version="opset1">
			<data element_type="f32" shape="1, 64, 1, 1" offset="139964" size="256"/>
			<rt_info>
				<attribute name="fused_names" version="0" value="StatefulPartitionedCall/model_12/sequential_38/instance_normalization_22/StatefulPartitionedCall/StatefulPartitionedCall/add_1/ReadVariableOp"/>
			</rt_info>
			<output>
				<port id="0" precision="FP32" names="StatefulPartitionedCall/model_12/sequential_38/instance_normalization_22/StatefulPartitionedCall/StatefulPartitionedCall/add_1/ReadVariableOp:0">
					<dim>1</dim>
					<dim>64</dim>
					<dim>1</dim>
					<dim>1</dim>
				</port>
			</output>
		</layer>
		<layer id="28" name="StatefulPartitionedCall/model_12/sequential_38/instance_normalization_22/StatefulPartitionedCall/StatefulPartitionedCall/add_1" type="Add" version="opset1">
			<data auto_broadcast="numpy"/>
			<rt_info>
				<attribute name="fused_names" version="0" value="StatefulPartitionedCall/model_12/sequential_38/instance_normalization_22/StatefulPartitionedCall/StatefulPartitionedCall/add_1"/>
			</rt_info>
			<input>
				<port id="0" precision="FP32">
					<dim>-1</dim>
					<dim>64</dim>
					<dim>32</dim>
					<dim>32</dim>
				</port>
				<port id="1" precision="FP32">
					<dim>1</dim>
					<dim>64</dim>
					<dim>1</dim>
					<dim>1</dim>
				</port>
			</input>
			<output>
				<port id="2" precision="FP32" names="Func/StatefulPartitionedCall/model_12/sequential_38/instance_normalization_22/StatefulPartitionedCall/StatefulPartitionedCall/output/_64:0,Func/StatefulPartitionedCall/model_12/sequential_38/instance_normalization_22/StatefulPartitionedCall/output/_28:0,StatefulPartitionedCall/model_12/sequential_38/instance_normalization_22/StatefulPartitionedCall/Identity:0,StatefulPartitionedCall/model_12/sequential_38/instance_normalization_22/StatefulPartitionedCall/StatefulPartitionedCall/Identity:0,StatefulPartitionedCall/model_12/sequential_38/instance_normalization_22/StatefulPartitionedCall/StatefulPartitionedCall/add_1:0">
					<dim>-1</dim>
					<dim>64</dim>
					<dim>32</dim>
					<dim>32</dim>
				</port>
			</output>
		</layer>
		<layer id="29" name="StatefulPartitionedCall/model_12/sequential_38/leaky_re_lu_17/LeakyRelu/weights44556971" type="Const" version="opset1">
			<data element_type="f32" shape="1" offset="8864" size="4"/>
			<rt_info>
				<attribute name="fused_names" version="0" value="StatefulPartitionedCall/model_12/sequential_38/leaky_re_lu_17/LeakyRelu/weights44556971"/>
			</rt_info>
			<output>
				<port id="0" precision="FP32">
					<dim>1</dim>
				</port>
			</output>
		</layer>
		<layer id="30" name="StatefulPartitionedCall/model_12/sequential_38/leaky_re_lu_17/LeakyRelu" type="PReLU" version="opset1">
			<rt_info>
				<attribute name="fused_names" version="0" value="StatefulPartitionedCall/model_12/sequential_38/leaky_re_lu_17/LeakyRelu"/>
			</rt_info>
			<input>
				<port id="0" precision="FP32">
					<dim>-1</dim>
					<dim>64</dim>
					<dim>32</dim>
					<dim>32</dim>
				</port>
				<port id="1" precision="FP32">
					<dim>1</dim>
				</port>
			</input>
			<output>
				<port id="2" precision="FP32" names="StatefulPartitionedCall/model_12/sequential_38/leaky_re_lu_17/LeakyRelu:0">
					<dim>-1</dim>
					<dim>64</dim>
					<dim>32</dim>
					<dim>32</dim>
				</port>
			</output>
		</layer>
		<layer id="31" name="StatefulPartitionedCall/model_12/sequential_39/conv2d_18/Conv2D/ReadVariableOp" type="Const" version="opset1">
			<data element_type="f32" shape="128, 64, 4, 4" offset="140220" size="524288"/>
			<rt_info>
				<attribute name="fused_names" version="0" value="StatefulPartitionedCall/model_12/sequential_39/conv2d_18/Conv2D/ReadVariableOp"/>
			</rt_info>
			<output>
				<port id="0" precision="FP32" names="StatefulPartitionedCall/model_12/sequential_39/conv2d_18/Conv2D/ReadVariableOp:0">
					<dim>128</dim>
					<dim>64</dim>
					<dim>4</dim>
					<dim>4</dim>
				</port>
			</output>
		</layer>
		<layer id="32" name="StatefulPartitionedCall/model_12/sequential_39/conv2d_18/Conv2D" type="Convolution" version="opset1">
			<data strides="2, 2" dilations="1, 1" pads_begin="0, 0" pads_end="0, 0" auto_pad="same_upper"/>
			<rt_info>
				<attribute name="fused_names" version="0" value="StatefulPartitionedCall/model_12/sequential_39/conv2d_18/Conv2D"/>
			</rt_info>
			<input>
				<port id="0" precision="FP32">
					<dim>-1</dim>
					<dim>64</dim>
					<dim>32</dim>
					<dim>32</dim>
				</port>
				<port id="1" precision="FP32">
					<dim>128</dim>
					<dim>64</dim>
					<dim>4</dim>
					<dim>4</dim>
				</port>
			</input>
			<output>
				<port id="2" precision="FP32" names="Func/StatefulPartitionedCall/model_12/sequential_39/instance_normalization_23/StatefulPartitionedCall/StatefulPartitionedCall/input/_67:0,Func/StatefulPartitionedCall/model_12/sequential_39/instance_normalization_23/StatefulPartitionedCall/input/_31:0,StatefulPartitionedCall/model_12/sequential_39/conv2d_18/Conv2D:0">
					<dim>-1</dim>
					<dim>128</dim>
					<dim>16</dim>
					<dim>16</dim>
				</port>
			</output>
		</layer>
		<layer id="33" name="40796977" type="Const" version="opset1">
			<data element_type="i64" shape="2" offset="139940" size="16"/>
			<rt_info>
				<attribute name="fused_names" version="0" value="40796977"/>
			</rt_info>
			<output>
				<port id="0" precision="I64">
					<dim>2</dim>
				</port>
			</output>
		</layer>
		<layer id="34" name="StatefulPartitionedCall/model_12/sequential_39/instance_normalization_23/StatefulPartitionedCall/StatefulPartitionedCall/moments/mean" type="ReduceMean" version="opset1">
			<data keep_dims="true"/>
			<rt_info>
				<attribute name="fused_names" version="0" value="StatefulPartitionedCall/model_12/sequential_39/instance_normalization_23/StatefulPartitionedCall/StatefulPartitionedCall/moments/mean"/>
			</rt_info>
			<input>
				<port id="0" precision="FP32">
					<dim>-1</dim>
					<dim>128</dim>
					<dim>16</dim>
					<dim>16</dim>
				</port>
				<port id="1" precision="I64">
					<dim>2</dim>
				</port>
			</input>
			<output>
				<port id="2" precision="FP32">
					<dim>-1</dim>
					<dim>128</dim>
					<dim>1</dim>
					<dim>1</dim>
				</port>
			</output>
		</layer>
		<layer id="35" name="StatefulPartitionedCall/model_12/sequential_39/instance_normalization_23/StatefulPartitionedCall/StatefulPartitionedCall/sub" type="Subtract" version="opset1">
			<data auto_broadcast="numpy"/>
			<rt_info>
				<attribute name="fused_names" version="0" value="StatefulPartitionedCall/model_12/sequential_39/instance_normalization_23/StatefulPartitionedCall/StatefulPartitionedCall/sub, StatefulPartitionedCall/model_12/sequential_39/instance_normalization_23/StatefulPartitionedCall/StatefulPartitionedCall/sub/neg_"/>
			</rt_info>
			<input>
				<port id="0" precision="FP32">
					<dim>-1</dim>
					<dim>128</dim>
					<dim>16</dim>
					<dim>16</dim>
				</port>
				<port id="1" precision="FP32">
					<dim>-1</dim>
					<dim>128</dim>
					<dim>1</dim>
					<dim>1</dim>
				</port>
			</input>
			<output>
				<port id="2" precision="FP32" names="StatefulPartitionedCall/model_12/sequential_39/instance_normalization_23/StatefulPartitionedCall/StatefulPartitionedCall/sub:0">
					<dim>-1</dim>
					<dim>128</dim>
					<dim>16</dim>
					<dim>16</dim>
				</port>
			</output>
		</layer>
		<layer id="36" name="StatefulPartitionedCall/model_12/sequential_39/instance_normalization_23/StatefulPartitionedCall/StatefulPartitionedCall/moments/SquaredDifference" type="SquaredDifference" version="opset1">
			<data auto_broadcast="numpy"/>
			<rt_info>
				<attribute name="fused_names" version="0" value="StatefulPartitionedCall/model_12/sequential_39/instance_normalization_23/StatefulPartitionedCall/StatefulPartitionedCall/moments/SquaredDifference"/>
			</rt_info>
			<input>
				<port id="0" precision="FP32">
					<dim>-1</dim>
					<dim>128</dim>
					<dim>16</dim>
					<dim>16</dim>
				</port>
				<port id="1" precision="FP32">
					<dim>-1</dim>
					<dim>128</dim>
					<dim>1</dim>
					<dim>1</dim>
				</port>
			</input>
			<output>
				<port id="2" precision="FP32" names="StatefulPartitionedCall/model_12/sequential_39/instance_normalization_23/StatefulPartitionedCall/StatefulPartitionedCall/moments/SquaredDifference:0">
					<dim>-1</dim>
					<dim>128</dim>
					<dim>16</dim>
					<dim>16</dim>
				</port>
			</output>
		</layer>
		<layer id="37" name="40856965" type="Const" version="opset1">
			<data element_type="i64" shape="2" offset="139940" size="16"/>
			<rt_info>
				<attribute name="fused_names" version="0" value="40856965"/>
			</rt_info>
			<output>
				<port id="0" precision="I64">
					<dim>2</dim>
				</port>
			</output>
		</layer>
		<layer id="38" name="StatefulPartitionedCall/model_12/sequential_39/instance_normalization_23/StatefulPartitionedCall/StatefulPartitionedCall/moments/variance" type="ReduceMean" version="opset1">
			<data keep_dims="true"/>
			<rt_info>
				<attribute name="fused_names" version="0" value="StatefulPartitionedCall/model_12/sequential_39/instance_normalization_23/StatefulPartitionedCall/StatefulPartitionedCall/moments/variance"/>
			</rt_info>
			<input>
				<port id="0" precision="FP32">
					<dim>-1</dim>
					<dim>128</dim>
					<dim>16</dim>
					<dim>16</dim>
				</port>
				<port id="1" precision="I64">
					<dim>2</dim>
				</port>
			</input>
			<output>
				<port id="2" precision="FP32" names="StatefulPartitionedCall/model_12/sequential_39/instance_normalization_23/StatefulPartitionedCall/StatefulPartitionedCall/moments/variance:0">
					<dim>-1</dim>
					<dim>128</dim>
					<dim>1</dim>
					<dim>1</dim>
				</port>
			</output>
		</layer>
		<layer id="39" name="StatefulPartitionedCall/model_12/sequential_39/instance_normalization_23/StatefulPartitionedCall/StatefulPartitionedCall/add/y" type="Const" version="opset1">
			<data element_type="f32" shape="1, 1, 1, 1" offset="139956" size="4"/>
			<rt_info>
				<attribute name="fused_names" version="0" value="StatefulPartitionedCall/model_12/sequential_39/instance_normalization_23/StatefulPartitionedCall/StatefulPartitionedCall/add/y"/>
			</rt_info>
			<output>
				<port id="0" precision="FP32" names="StatefulPartitionedCall/model_12/sequential_39/instance_normalization_23/StatefulPartitionedCall/StatefulPartitionedCall/add/y:0">
					<dim>1</dim>
					<dim>1</dim>
					<dim>1</dim>
					<dim>1</dim>
				</port>
			</output>
		</layer>
		<layer id="40" name="StatefulPartitionedCall/model_12/sequential_39/instance_normalization_23/StatefulPartitionedCall/StatefulPartitionedCall/add" type="Add" version="opset1">
			<data auto_broadcast="numpy"/>
			<rt_info>
				<attribute name="fused_names" version="0" value="StatefulPartitionedCall/model_12/sequential_39/instance_normalization_23/StatefulPartitionedCall/StatefulPartitionedCall/add"/>
			</rt_info>
			<input>
				<port id="0" precision="FP32">
					<dim>-1</dim>
					<dim>128</dim>
					<dim>1</dim>
					<dim>1</dim>
				</port>
				<port id="1" precision="FP32">
					<dim>1</dim>
					<dim>1</dim>
					<dim>1</dim>
					<dim>1</dim>
				</port>
			</input>
			<output>
				<port id="2" precision="FP32" names="StatefulPartitionedCall/model_12/sequential_39/instance_normalization_23/StatefulPartitionedCall/StatefulPartitionedCall/add:0">
					<dim>-1</dim>
					<dim>128</dim>
					<dim>1</dim>
					<dim>1</dim>
				</port>
			</output>
		</layer>
		<layer id="41" name="310" type="Const" version="opset1">
			<data element_type="f32" shape="1, 1, 1, 1" offset="139960" size="4"/>
			<rt_info>
				<attribute name="fused_names" version="0" value="310"/>
			</rt_info>
			<output>
				<port id="0" precision="FP32">
					<dim>1</dim>
					<dim>1</dim>
					<dim>1</dim>
					<dim>1</dim>
				</port>
			</output>
		</layer>
		<layer id="42" name="StatefulPartitionedCall/model_12/sequential_39/instance_normalization_23/StatefulPartitionedCall/StatefulPartitionedCall/Rsqrt/pow_" type="Power" version="opset1">
			<data auto_broadcast="numpy"/>
			<rt_info>
				<attribute name="fused_names" version="0" value="StatefulPartitionedCall/model_12/sequential_39/instance_normalization_23/StatefulPartitionedCall/StatefulPartitionedCall/Rsqrt/pow_"/>
			</rt_info>
			<input>
				<port id="0" precision="FP32">
					<dim>-1</dim>
					<dim>128</dim>
					<dim>1</dim>
					<dim>1</dim>
				</port>
				<port id="1" precision="FP32">
					<dim>1</dim>
					<dim>1</dim>
					<dim>1</dim>
					<dim>1</dim>
				</port>
			</input>
			<output>
				<port id="2" precision="FP32" names="StatefulPartitionedCall/model_12/sequential_39/instance_normalization_23/StatefulPartitionedCall/StatefulPartitionedCall/Rsqrt:0">
					<dim>-1</dim>
					<dim>128</dim>
					<dim>1</dim>
					<dim>1</dim>
				</port>
			</output>
		</layer>
		<layer id="43" name="StatefulPartitionedCall/model_12/sequential_39/instance_normalization_23/StatefulPartitionedCall/StatefulPartitionedCall/mul" type="Multiply" version="opset1">
			<data auto_broadcast="numpy"/>
			<rt_info>
				<attribute name="fused_names" version="0" value="StatefulPartitionedCall/model_12/sequential_39/instance_normalization_23/StatefulPartitionedCall/StatefulPartitionedCall/mul"/>
			</rt_info>
			<input>
				<port id="0" precision="FP32">
					<dim>-1</dim>
					<dim>128</dim>
					<dim>16</dim>
					<dim>16</dim>
				</port>
				<port id="1" precision="FP32">
					<dim>-1</dim>
					<dim>128</dim>
					<dim>1</dim>
					<dim>1</dim>
				</port>
			</input>
			<output>
				<port id="2" precision="FP32" names="StatefulPartitionedCall/model_12/sequential_39/instance_normalization_23/StatefulPartitionedCall/StatefulPartitionedCall/mul:0">
					<dim>-1</dim>
					<dim>128</dim>
					<dim>16</dim>
					<dim>16</dim>
				</port>
			</output>
		</layer>
		<layer id="44" name="StatefulPartitionedCall/model_12/sequential_39/instance_normalization_23/StatefulPartitionedCall/StatefulPartitionedCall/mul_1" type="Multiply" version="opset1">
			<data auto_broadcast="numpy"/>
			<rt_info>
				<attribute name="fused_names" version="0" value="StatefulPartitionedCall/model_12/sequential_39/instance_normalization_23/StatefulPartitionedCall/StatefulPartitionedCall/mul_1"/>
			</rt_info>
			<input>
				<port id="0" precision="FP32">
					<dim>1</dim>
					<dim>128</dim>
					<dim>1</dim>
					<dim>1</dim>
				</port>
				<port id="1" precision="FP32">
					<dim>-1</dim>
					<dim>128</dim>
					<dim>16</dim>
					<dim>16</dim>
				</port>
			</input>
			<output>
				<port id="2" precision="FP32" names="StatefulPartitionedCall/model_12/sequential_39/instance_normalization_23/StatefulPartitionedCall/StatefulPartitionedCall/mul_1:0">
					<dim>-1</dim>
					<dim>128</dim>
					<dim>16</dim>
					<dim>16</dim>
				</port>
			</output>
		</layer>
		<layer id="45" name="StatefulPartitionedCall/model_12/sequential_39/instance_normalization_23/StatefulPartitionedCall/StatefulPartitionedCall/add_1/ReadVariableOp" type="Const" version="opset1">
			<data element_type="f32" shape="1, 128, 1, 1" offset="664508" size="512"/>
			<rt_info>
				<attribute name="fused_names" version="0" value="StatefulPartitionedCall/model_12/sequential_39/instance_normalization_23/StatefulPartitionedCall/StatefulPartitionedCall/add_1/ReadVariableOp"/>
			</rt_info>
			<output>
				<port id="0" precision="FP32" names="StatefulPartitionedCall/model_12/sequential_39/instance_normalization_23/StatefulPartitionedCall/StatefulPartitionedCall/add_1/ReadVariableOp:0">
					<dim>1</dim>
					<dim>128</dim>
					<dim>1</dim>
					<dim>1</dim>
				</port>
			</output>
		</layer>
		<layer id="46" name="StatefulPartitionedCall/model_12/sequential_39/instance_normalization_23/StatefulPartitionedCall/StatefulPartitionedCall/add_1" type="Add" version="opset1">
			<data auto_broadcast="numpy"/>
			<rt_info>
				<attribute name="fused_names" version="0" value="StatefulPartitionedCall/model_12/sequential_39/instance_normalization_23/StatefulPartitionedCall/StatefulPartitionedCall/add_1"/>
			</rt_info>
			<input>
				<port id="0" precision="FP32">
					<dim>-1</dim>
					<dim>128</dim>
					<dim>16</dim>
					<dim>16</dim>
				</port>
				<port id="1" precision="FP32">
					<dim>1</dim>
					<dim>128</dim>
					<dim>1</dim>
					<dim>1</dim>
				</port>
			</input>
			<output>
				<port id="2" precision="FP32" names="Func/StatefulPartitionedCall/model_12/sequential_39/instance_normalization_23/StatefulPartitionedCall/StatefulPartitionedCall/output/_70:0,Func/StatefulPartitionedCall/model_12/sequential_39/instance_normalization_23/StatefulPartitionedCall/output/_34:0,StatefulPartitionedCall/model_12/sequential_39/instance_normalization_23/StatefulPartitionedCall/Identity:0,StatefulPartitionedCall/model_12/sequential_39/instance_normalization_23/StatefulPartitionedCall/StatefulPartitionedCall/Identity:0,StatefulPartitionedCall/model_12/sequential_39/instance_normalization_23/StatefulPartitionedCall/StatefulPartitionedCall/add_1:0">
					<dim>-1</dim>
					<dim>128</dim>
					<dim>16</dim>
					<dim>16</dim>
				</port>
			</output>
		</layer>
		<layer id="47" name="StatefulPartitionedCall/model_12/sequential_39/leaky_re_lu_18/LeakyRelu/weights44477079" type="Const" version="opset1">
			<data element_type="f32" shape="1" offset="8864" size="4"/>
			<rt_info>
				<attribute name="fused_names" version="0" value="StatefulPartitionedCall/model_12/sequential_39/leaky_re_lu_18/LeakyRelu/weights44477079"/>
			</rt_info>
			<output>
				<port id="0" precision="FP32">
					<dim>1</dim>
				</port>
			</output>
		</layer>
		<layer id="48" name="StatefulPartitionedCall/model_12/sequential_39/leaky_re_lu_18/LeakyRelu" type="PReLU" version="opset1">
			<rt_info>
				<attribute name="fused_names" version="0" value="StatefulPartitionedCall/model_12/sequential_39/leaky_re_lu_18/LeakyRelu"/>
			</rt_info>
			<input>
				<port id="0" precision="FP32">
					<dim>-1</dim>
					<dim>128</dim>
					<dim>16</dim>
					<dim>16</dim>
				</port>
				<port id="1" precision="FP32">
					<dim>1</dim>
				</port>
			</input>
			<output>
				<port id="2" precision="FP32" names="StatefulPartitionedCall/model_12/sequential_39/leaky_re_lu_18/LeakyRelu:0">
					<dim>-1</dim>
					<dim>128</dim>
					<dim>16</dim>
					<dim>16</dim>
				</port>
			</output>
		</layer>
		<layer id="49" name="StatefulPartitionedCall/model_12/sequential_40/conv2d_19/Conv2D/ReadVariableOp" type="Const" version="opset1">
			<data element_type="f32" shape="256, 128, 4, 4" offset="665020" size="2097152"/>
			<rt_info>
				<attribute name="fused_names" version="0" value="StatefulPartitionedCall/model_12/sequential_40/conv2d_19/Conv2D/ReadVariableOp"/>
			</rt_info>
			<output>
				<port id="0" precision="FP32" names="StatefulPartitionedCall/model_12/sequential_40/conv2d_19/Conv2D/ReadVariableOp:0">
					<dim>256</dim>
					<dim>128</dim>
					<dim>4</dim>
					<dim>4</dim>
				</port>
			</output>
		</layer>
		<layer id="50" name="StatefulPartitionedCall/model_12/sequential_40/conv2d_19/Conv2D" type="Convolution" version="opset1">
			<data strides="2, 2" dilations="1, 1" pads_begin="0, 0" pads_end="0, 0" auto_pad="same_upper"/>
			<rt_info>
				<attribute name="fused_names" version="0" value="StatefulPartitionedCall/model_12/sequential_40/conv2d_19/Conv2D"/>
			</rt_info>
			<input>
				<port id="0" precision="FP32">
					<dim>-1</dim>
					<dim>128</dim>
					<dim>16</dim>
					<dim>16</dim>
				</port>
				<port id="1" precision="FP32">
					<dim>256</dim>
					<dim>128</dim>
					<dim>4</dim>
					<dim>4</dim>
				</port>
			</input>
			<output>
				<port id="2" precision="FP32" names="Func/StatefulPartitionedCall/model_12/sequential_40/instance_normalization_24/StatefulPartitionedCall/StatefulPartitionedCall/input/_73:0,Func/StatefulPartitionedCall/model_12/sequential_40/instance_normalization_24/StatefulPartitionedCall/input/_37:0,StatefulPartitionedCall/model_12/sequential_40/conv2d_19/Conv2D:0">
					<dim>-1</dim>
					<dim>256</dim>
					<dim>8</dim>
					<dim>8</dim>
				</port>
			</output>
		</layer>
		<layer id="51" name="40957163" type="Const" version="opset1">
			<data element_type="i64" shape="2" offset="139940" size="16"/>
			<rt_info>
				<attribute name="fused_names" version="0" value="40957163"/>
			</rt_info>
			<output>
				<port id="0" precision="I64">
					<dim>2</dim>
				</port>
			</output>
		</layer>
		<layer id="52" name="StatefulPartitionedCall/model_12/sequential_40/instance_normalization_24/StatefulPartitionedCall/StatefulPartitionedCall/moments/mean" type="ReduceMean" version="opset1">
			<data keep_dims="true"/>
			<rt_info>
				<attribute name="fused_names" version="0" value="StatefulPartitionedCall/model_12/sequential_40/instance_normalization_24/StatefulPartitionedCall/StatefulPartitionedCall/moments/mean"/>
			</rt_info>
			<input>
				<port id="0" precision="FP32">
					<dim>-1</dim>
					<dim>256</dim>
					<dim>8</dim>
					<dim>8</dim>
				</port>
				<port id="1" precision="I64">
					<dim>2</dim>
				</port>
			</input>
			<output>
				<port id="2" precision="FP32">
					<dim>-1</dim>
					<dim>256</dim>
					<dim>1</dim>
					<dim>1</dim>
				</port>
			</output>
		</layer>
		<layer id="53" name="StatefulPartitionedCall/model_12/sequential_40/instance_normalization_24/StatefulPartitionedCall/StatefulPartitionedCall/sub" type="Subtract" version="opset1">
			<data auto_broadcast="numpy"/>
			<rt_info>
				<attribute name="fused_names" version="0" value="StatefulPartitionedCall/model_12/sequential_40/instance_normalization_24/StatefulPartitionedCall/StatefulPartitionedCall/sub, StatefulPartitionedCall/model_12/sequential_40/instance_normalization_24/StatefulPartitionedCall/StatefulPartitionedCall/sub/neg_"/>
			</rt_info>
			<input>
				<port id="0" precision="FP32">
					<dim>-1</dim>
					<dim>256</dim>
					<dim>8</dim>
					<dim>8</dim>
				</port>
				<port id="1" precision="FP32">
					<dim>-1</dim>
					<dim>256</dim>
					<dim>1</dim>
					<dim>1</dim>
				</port>
			</input>
			<output>
				<port id="2" precision="FP32" names="StatefulPartitionedCall/model_12/sequential_40/instance_normalization_24/StatefulPartitionedCall/StatefulPartitionedCall/sub:0">
					<dim>-1</dim>
					<dim>256</dim>
					<dim>8</dim>
					<dim>8</dim>
				</port>
			</output>
		</layer>
		<layer id="54" name="StatefulPartitionedCall/model_12/sequential_40/instance_normalization_24/StatefulPartitionedCall/StatefulPartitionedCall/moments/SquaredDifference" type="SquaredDifference" version="opset1">
			<data auto_broadcast="numpy"/>
			<rt_info>
				<attribute name="fused_names" version="0" value="StatefulPartitionedCall/model_12/sequential_40/instance_normalization_24/StatefulPartitionedCall/StatefulPartitionedCall/moments/SquaredDifference"/>
			</rt_info>
			<input>
				<port id="0" precision="FP32">
					<dim>-1</dim>
					<dim>256</dim>
					<dim>8</dim>
					<dim>8</dim>
				</port>
				<port id="1" precision="FP32">
					<dim>-1</dim>
					<dim>256</dim>
					<dim>1</dim>
					<dim>1</dim>
				</port>
			</input>
			<output>
				<port id="2" precision="FP32" names="StatefulPartitionedCall/model_12/sequential_40/instance_normalization_24/StatefulPartitionedCall/StatefulPartitionedCall/moments/SquaredDifference:0">
					<dim>-1</dim>
					<dim>256</dim>
					<dim>8</dim>
					<dim>8</dim>
				</port>
			</output>
		</layer>
		<layer id="55" name="41017151" type="Const" version="opset1">
			<data element_type="i64" shape="2" offset="139940" size="16"/>
			<rt_info>
				<attribute name="fused_names" version="0" value="41017151"/>
			</rt_info>
			<output>
				<port id="0" precision="I64">
					<dim>2</dim>
				</port>
			</output>
		</layer>
		<layer id="56" name="StatefulPartitionedCall/model_12/sequential_40/instance_normalization_24/StatefulPartitionedCall/StatefulPartitionedCall/moments/variance" type="ReduceMean" version="opset1">
			<data keep_dims="true"/>
			<rt_info>
				<attribute name="fused_names" version="0" value="StatefulPartitionedCall/model_12/sequential_40/instance_normalization_24/StatefulPartitionedCall/StatefulPartitionedCall/moments/variance"/>
			</rt_info>
			<input>
				<port id="0" precision="FP32">
					<dim>-1</dim>
					<dim>256</dim>
					<dim>8</dim>
					<dim>8</dim>
				</port>
				<port id="1" precision="I64">
					<dim>2</dim>
				</port>
			</input>
			<output>
				<port id="2" precision="FP32" names="StatefulPartitionedCall/model_12/sequential_40/instance_normalization_24/StatefulPartitionedCall/StatefulPartitionedCall/moments/variance:0">
					<dim>-1</dim>
					<dim>256</dim>
					<dim>1</dim>
					<dim>1</dim>
				</port>
			</output>
		</layer>
		<layer id="57" name="StatefulPartitionedCall/model_12/sequential_40/instance_normalization_24/StatefulPartitionedCall/StatefulPartitionedCall/add/y" type="Const" version="opset1">
			<data element_type="f32" shape="1, 1, 1, 1" offset="139956" size="4"/>
			<rt_info>
				<attribute name="fused_names" version="0" value="StatefulPartitionedCall/model_12/sequential_40/instance_normalization_24/StatefulPartitionedCall/StatefulPartitionedCall/add/y"/>
			</rt_info>
			<output>
				<port id="0" precision="FP32" names="StatefulPartitionedCall/model_12/sequential_40/instance_normalization_24/StatefulPartitionedCall/StatefulPartitionedCall/add/y:0">
					<dim>1</dim>
					<dim>1</dim>
					<dim>1</dim>
					<dim>1</dim>
				</port>
			</output>
		</layer>
		<layer id="58" name="StatefulPartitionedCall/model_12/sequential_40/instance_normalization_24/StatefulPartitionedCall/StatefulPartitionedCall/add" type="Add" version="opset1">
			<data auto_broadcast="numpy"/>
			<rt_info>
				<attribute name="fused_names" version="0" value="StatefulPartitionedCall/model_12/sequential_40/instance_normalization_24/StatefulPartitionedCall/StatefulPartitionedCall/add"/>
			</rt_info>
			<input>
				<port id="0" precision="FP32">
					<dim>-1</dim>
					<dim>256</dim>
					<dim>1</dim>
					<dim>1</dim>
				</port>
				<port id="1" precision="FP32">
					<dim>1</dim>
					<dim>1</dim>
					<dim>1</dim>
					<dim>1</dim>
				</port>
			</input>
			<output>
				<port id="2" precision="FP32" names="StatefulPartitionedCall/model_12/sequential_40/instance_normalization_24/StatefulPartitionedCall/StatefulPartitionedCall/add:0">
					<dim>-1</dim>
					<dim>256</dim>
					<dim>1</dim>
					<dim>1</dim>
				</port>
			</output>
		</layer>
		<layer id="59" name="304" type="Const" version="opset1">
			<data element_type="f32" shape="1, 1, 1, 1" offset="139960" size="4"/>
			<rt_info>
				<attribute name="fused_names" version="0" value="304"/>
			</rt_info>
			<output>
				<port id="0" precision="FP32">
					<dim>1</dim>
					<dim>1</dim>
					<dim>1</dim>
					<dim>1</dim>
				</port>
			</output>
		</layer>
		<layer id="60" name="StatefulPartitionedCall/model_12/sequential_40/instance_normalization_24/StatefulPartitionedCall/StatefulPartitionedCall/Rsqrt/pow_" type="Power" version="opset1">
			<data auto_broadcast="numpy"/>
			<rt_info>
				<attribute name="fused_names" version="0" value="StatefulPartitionedCall/model_12/sequential_40/instance_normalization_24/StatefulPartitionedCall/StatefulPartitionedCall/Rsqrt/pow_"/>
			</rt_info>
			<input>
				<port id="0" precision="FP32">
					<dim>-1</dim>
					<dim>256</dim>
					<dim>1</dim>
					<dim>1</dim>
				</port>
				<port id="1" precision="FP32">
					<dim>1</dim>
					<dim>1</dim>
					<dim>1</dim>
					<dim>1</dim>
				</port>
			</input>
			<output>
				<port id="2" precision="FP32" names="StatefulPartitionedCall/model_12/sequential_40/instance_normalization_24/StatefulPartitionedCall/StatefulPartitionedCall/Rsqrt:0">
					<dim>-1</dim>
					<dim>256</dim>
					<dim>1</dim>
					<dim>1</dim>
				</port>
			</output>
		</layer>
		<layer id="61" name="StatefulPartitionedCall/model_12/sequential_40/instance_normalization_24/StatefulPartitionedCall/StatefulPartitionedCall/mul" type="Multiply" version="opset1">
			<data auto_broadcast="numpy"/>
			<rt_info>
				<attribute name="fused_names" version="0" value="StatefulPartitionedCall/model_12/sequential_40/instance_normalization_24/StatefulPartitionedCall/StatefulPartitionedCall/mul"/>
			</rt_info>
			<input>
				<port id="0" precision="FP32">
					<dim>-1</dim>
					<dim>256</dim>
					<dim>8</dim>
					<dim>8</dim>
				</port>
				<port id="1" precision="FP32">
					<dim>-1</dim>
					<dim>256</dim>
					<dim>1</dim>
					<dim>1</dim>
				</port>
			</input>
			<output>
				<port id="2" precision="FP32" names="StatefulPartitionedCall/model_12/sequential_40/instance_normalization_24/StatefulPartitionedCall/StatefulPartitionedCall/mul:0">
					<dim>-1</dim>
					<dim>256</dim>
					<dim>8</dim>
					<dim>8</dim>
				</port>
			</output>
		</layer>
		<layer id="62" name="StatefulPartitionedCall/model_12/sequential_40/instance_normalization_24/StatefulPartitionedCall/StatefulPartitionedCall/mul_1" type="Multiply" version="opset1">
			<data auto_broadcast="numpy"/>
			<rt_info>
				<attribute name="fused_names" version="0" value="StatefulPartitionedCall/model_12/sequential_40/instance_normalization_24/StatefulPartitionedCall/StatefulPartitionedCall/mul_1"/>
			</rt_info>
			<input>
				<port id="0" precision="FP32">
					<dim>1</dim>
					<dim>256</dim>
					<dim>1</dim>
					<dim>1</dim>
				</port>
				<port id="1" precision="FP32">
					<dim>-1</dim>
					<dim>256</dim>
					<dim>8</dim>
					<dim>8</dim>
				</port>
			</input>
			<output>
				<port id="2" precision="FP32" names="StatefulPartitionedCall/model_12/sequential_40/instance_normalization_24/StatefulPartitionedCall/StatefulPartitionedCall/mul_1:0">
					<dim>-1</dim>
					<dim>256</dim>
					<dim>8</dim>
					<dim>8</dim>
				</port>
			</output>
		</layer>
		<layer id="63" name="StatefulPartitionedCall/model_12/sequential_40/instance_normalization_24/StatefulPartitionedCall/StatefulPartitionedCall/add_1/ReadVariableOp" type="Const" version="opset1">
			<data element_type="f32" shape="1, 256, 1, 1" offset="2762172" size="1024"/>
			<rt_info>
				<attribute name="fused_names" version="0" value="StatefulPartitionedCall/model_12/sequential_40/instance_normalization_24/StatefulPartitionedCall/StatefulPartitionedCall/add_1/ReadVariableOp"/>
			</rt_info>
			<output>
				<port id="0" precision="FP32" names="StatefulPartitionedCall/model_12/sequential_40/instance_normalization_24/StatefulPartitionedCall/StatefulPartitionedCall/add_1/ReadVariableOp:0">
					<dim>1</dim>
					<dim>256</dim>
					<dim>1</dim>
					<dim>1</dim>
				</port>
			</output>
		</layer>
		<layer id="64" name="StatefulPartitionedCall/model_12/sequential_40/instance_normalization_24/StatefulPartitionedCall/StatefulPartitionedCall/add_1" type="Add" version="opset1">
			<data auto_broadcast="numpy"/>
			<rt_info>
				<attribute name="fused_names" version="0" value="StatefulPartitionedCall/model_12/sequential_40/instance_normalization_24/StatefulPartitionedCall/StatefulPartitionedCall/add_1"/>
			</rt_info>
			<input>
				<port id="0" precision="FP32">
					<dim>-1</dim>
					<dim>256</dim>
					<dim>8</dim>
					<dim>8</dim>
				</port>
				<port id="1" precision="FP32">
					<dim>1</dim>
					<dim>256</dim>
					<dim>1</dim>
					<dim>1</dim>
				</port>
			</input>
			<output>
				<port id="2" precision="FP32" names="Func/StatefulPartitionedCall/model_12/sequential_40/instance_normalization_24/StatefulPartitionedCall/StatefulPartitionedCall/output/_76:0,Func/StatefulPartitionedCall/model_12/sequential_40/instance_normalization_24/StatefulPartitionedCall/output/_40:0,StatefulPartitionedCall/model_12/sequential_40/instance_normalization_24/StatefulPartitionedCall/Identity:0,StatefulPartitionedCall/model_12/sequential_40/instance_normalization_24/StatefulPartitionedCall/StatefulPartitionedCall/Identity:0,StatefulPartitionedCall/model_12/sequential_40/instance_normalization_24/StatefulPartitionedCall/StatefulPartitionedCall/add_1:0">
					<dim>-1</dim>
					<dim>256</dim>
					<dim>8</dim>
					<dim>8</dim>
				</port>
			</output>
		</layer>
		<layer id="65" name="StatefulPartitionedCall/model_12/sequential_40/leaky_re_lu_19/LeakyRelu/weights44517136" type="Const" version="opset1">
			<data element_type="f32" shape="1" offset="8864" size="4"/>
			<rt_info>
				<attribute name="fused_names" version="0" value="StatefulPartitionedCall/model_12/sequential_40/leaky_re_lu_19/LeakyRelu/weights44517136"/>
			</rt_info>
			<output>
				<port id="0" precision="FP32">
					<dim>1</dim>
				</port>
			</output>
		</layer>
		<layer id="66" name="StatefulPartitionedCall/model_12/sequential_40/leaky_re_lu_19/LeakyRelu" type="PReLU" version="opset1">
			<rt_info>
				<attribute name="fused_names" version="0" value="StatefulPartitionedCall/model_12/sequential_40/leaky_re_lu_19/LeakyRelu"/>
			</rt_info>
			<input>
				<port id="0" precision="FP32">
					<dim>-1</dim>
					<dim>256</dim>
					<dim>8</dim>
					<dim>8</dim>
				</port>
				<port id="1" precision="FP32">
					<dim>1</dim>
				</port>
			</input>
			<output>
				<port id="2" precision="FP32" names="StatefulPartitionedCall/model_12/sequential_40/leaky_re_lu_19/LeakyRelu:0">
					<dim>-1</dim>
					<dim>256</dim>
					<dim>8</dim>
					<dim>8</dim>
				</port>
			</output>
		</layer>
		<layer id="67" name="StatefulPartitionedCall/model_12/sequential_41/conv2d_transpose_29/conv2d_transpose/ReadVariableOp" type="Const" version="opset1">
			<data element_type="f32" shape="256, 128, 4, 4" offset="2763196" size="2097152"/>
			<rt_info>
				<attribute name="fused_names" version="0" value="StatefulPartitionedCall/model_12/sequential_41/conv2d_transpose_29/conv2d_transpose/ReadVariableOp"/>
			</rt_info>
			<output>
				<port id="0" precision="FP32" names="StatefulPartitionedCall/model_12/sequential_41/conv2d_transpose_29/conv2d_transpose/ReadVariableOp:0">
					<dim>256</dim>
					<dim>128</dim>
					<dim>4</dim>
					<dim>4</dim>
				</port>
			</output>
		</layer>
		<layer id="68" name="StatefulPartitionedCall/model_12/sequential_41/conv2d_transpose_29/Shape" type="ShapeOf" version="opset3">
			<data output_type="i32"/>
			<rt_info>
				<attribute name="fused_names" version="0" value="StatefulPartitionedCall/model_12/sequential_41/conv2d_transpose_29/Shape"/>
			</rt_info>
			<input>
				<port id="0" precision="FP32">
					<dim>-1</dim>
					<dim>256</dim>
					<dim>8</dim>
					<dim>8</dim>
				</port>
			</input>
			<output>
				<port id="1" precision="I32">
					<dim>4</dim>
				</port>
			</output>
		</layer>
		<layer id="69" name="StatefulPartitionedCall/model_12/sequential_41/conv2d_transpose_29/Shape/GatherNCHWtoNHWC_input_port_1/value39017223" type="Const" version="opset1">
			<data element_type="i32" shape="4" offset="4860348" size="16"/>
			<rt_info>
				<attribute name="fused_names" version="0" value="StatefulPartitionedCall/model_12/sequential_41/conv2d_transpose_29/Shape/GatherNCHWtoNHWC_input_port_1/value39017223"/>
			</rt_info>
			<output>
				<port id="0" precision="I32">
					<dim>4</dim>
				</port>
			</output>
		</layer>
		<layer id="70" name="StatefulPartitionedCall/model_12/sequential_41/conv2d_transpose_29/Shape/GatherNCHWtoNHWC_input_port_2/value39037049" type="Const" version="opset1">
			<data element_type="i64" shape="" offset="4860364" size="8"/>
			<rt_info>
				<attribute name="fused_names" version="0" value="StatefulPartitionedCall/model_12/sequential_41/conv2d_transpose_29/Shape/GatherNCHWtoNHWC_input_port_2/value39037049"/>
			</rt_info>
			<output>
				<port id="0" precision="I64"/>
			</output>
		</layer>
		<layer id="71" name="StatefulPartitionedCall/model_12/sequential_41/conv2d_transpose_29/Shape/GatherNCHWtoNHWC" type="Gather" version="opset8">
			<data batch_dims="0"/>
			<rt_info>
				<attribute name="fused_names" version="0" value="StatefulPartitionedCall/model_12/sequential_41/conv2d_transpose_29/Shape/GatherNCHWtoNHWC, StatefulPartitionedCall/model_12/sequential_41/conv2d_transpose_29/Shape/GatherNCHWtoNHWC_input_port_1/value39017223, StatefulPartitionedCall/model_12/sequential_41/conv2d_transpose_29/Shape/GatherNCHWtoNHWC_input_port_2/value39037049"/>
			</rt_info>
			<input>
				<port id="0" precision="I32">
					<dim>4</dim>
				</port>
				<port id="1" precision="I32">
					<dim>4</dim>
				</port>
				<port id="2" precision="I64"/>
			</input>
			<output>
				<port id="3" precision="I32" names="StatefulPartitionedCall/model_12/sequential_41/conv2d_transpose_29/Shape:0">
					<dim>4</dim>
				</port>
			</output>
		</layer>
		<layer id="72" name="StatefulPartitionedCall/model_12/sequential_41/conv2d_transpose_29/strided_slice/stack" type="Const" version="opset1">
			<data element_type="i64" shape="1" offset="4860364" size="8"/>
			<rt_info>
				<attribute name="fused_names" version="0" value="StatefulPartitionedCall/model_12/sequential_41/conv2d_transpose_29/strided_slice/stack"/>
			</rt_info>
			<output>
				<port id="0" precision="I64" names="StatefulPartitionedCall/model_12/sequential_41/conv2d_transpose_29/strided_slice/stack:0">
					<dim>1</dim>
				</port>
			</output>
		</layer>
		<layer id="73" name="StatefulPartitionedCall/model_12/sequential_41/conv2d_transpose_29/strided_slice/stack_1" type="Const" version="opset1">
			<data element_type="i64" shape="1" offset="4860372" size="8"/>
			<rt_info>
				<attribute name="fused_names" version="0" value="StatefulPartitionedCall/model_12/sequential_41/conv2d_transpose_29/strided_slice/stack_1"/>
			</rt_info>
			<output>
				<port id="0" precision="I64" names="StatefulPartitionedCall/model_12/sequential_41/conv2d_transpose_29/strided_slice/stack_1:0">
					<dim>1</dim>
				</port>
			</output>
		</layer>
		<layer id="74" name="StatefulPartitionedCall/model_12/sequential_41/conv2d_transpose_29/strided_slice/stack_2" type="Const" version="opset1">
			<data element_type="i64" shape="1" offset="4860372" size="8"/>
			<rt_info>
				<attribute name="fused_names" version="0" value="StatefulPartitionedCall/model_12/sequential_41/conv2d_transpose_29/strided_slice/stack_2"/>
			</rt_info>
			<output>
				<port id="0" precision="I64" names="StatefulPartitionedCall/model_12/sequential_41/conv2d_transpose_29/strided_slice/stack_2:0">
					<dim>1</dim>
				</port>
			</output>
		</layer>
		<layer id="75" name="StatefulPartitionedCall/model_12/sequential_41/conv2d_transpose_29/strided_slice" type="StridedSlice" version="opset1">
			<data begin_mask="0" end_mask="0" new_axis_mask="0" shrink_axis_mask="1" ellipsis_mask="0"/>
			<rt_info>
				<attribute name="fused_names" version="0" value="StatefulPartitionedCall/model_12/sequential_41/conv2d_transpose_29/strided_slice, StatefulPartitionedCall/model_12/sequential_41/conv2d_transpose_29/strided_slice/stack, StatefulPartitionedCall/model_12/sequential_41/conv2d_transpose_29/strided_slice/stack_1, StatefulPartitionedCall/model_12/sequential_41/conv2d_transpose_29/strided_slice/stack_2"/>
			</rt_info>
			<input>
				<port id="0" precision="I32">
					<dim>4</dim>
				</port>
				<port id="1" precision="I64">
					<dim>1</dim>
				</port>
				<port id="2" precision="I64">
					<dim>1</dim>
				</port>
				<port id="3" precision="I64">
					<dim>1</dim>
				</port>
			</input>
			<output>
				<port id="4" precision="I32" names="StatefulPartitionedCall/model_12/sequential_41/conv2d_transpose_29/strided_slice:0"/>
			</output>
		</layer>
		<layer id="76" name="StatefulPartitionedCall/model_12/sequential_41/conv2d_transpose_29/stack/Unsqueeze_input_port_1/value" type="Const" version="opset1">
			<data element_type="i64" shape="1" offset="4860364" size="8"/>
			<rt_info>
				<attribute name="fused_names" version="0" value="StatefulPartitionedCall/model_12/sequential_41/conv2d_transpose_29/stack/Unsqueeze_input_port_1/value"/>
			</rt_info>
			<output>
				<port id="0" precision="I64">
					<dim>1</dim>
				</port>
			</output>
		</layer>
		<layer id="77" name="StatefulPartitionedCall/model_12/sequential_41/conv2d_transpose_29/stack/Unsqueeze" type="Unsqueeze" version="opset1">
			<rt_info>
				<attribute name="fused_names" version="0" value="StatefulPartitionedCall/model_12/sequential_41/conv2d_transpose_29/stack/Unsqueeze, StatefulPartitionedCall/model_12/sequential_41/conv2d_transpose_29/stack/Unsqueeze_input_port_1/value"/>
			</rt_info>
			<input>
				<port id="0" precision="I32"/>
				<port id="1" precision="I64">
					<dim>1</dim>
				</port>
			</input>
			<output>
				<port id="2" precision="I32">
					<dim>1</dim>
				</port>
			</output>
		</layer>
		<layer id="78" name="StatefulPartitionedCall/model_12/sequential_41/conv2d_transpose_29/stack/Unsqueeze335" type="Const" version="opset1">
			<data element_type="i32" shape="1" offset="4860380" size="4"/>
			<rt_info>
				<attribute name="fused_names" version="0" value="StatefulPartitionedCall/model_12/sequential_41/conv2d_transpose_29/stack/Unsqueeze335"/>
			</rt_info>
			<output>
				<port id="0" precision="I32">
					<dim>1</dim>
				</port>
			</output>
		</layer>
		<layer id="79" name="StatefulPartitionedCall/model_12/sequential_41/conv2d_transpose_29/stack/Unsqueeze337" type="Const" version="opset1">
			<data element_type="i32" shape="1" offset="4860380" size="4"/>
			<rt_info>
				<attribute name="fused_names" version="0" value="StatefulPartitionedCall/model_12/sequential_41/conv2d_transpose_29/stack/Unsqueeze337"/>
			</rt_info>
			<output>
				<port id="0" precision="I32">
					<dim>1</dim>
				</port>
			</output>
		</layer>
		<layer id="80" name="StatefulPartitionedCall/model_12/sequential_41/conv2d_transpose_29/stack/Unsqueeze339" type="Const" version="opset1">
			<data element_type="i32" shape="1" offset="4860384" size="4"/>
			<rt_info>
				<attribute name="fused_names" version="0" value="StatefulPartitionedCall/model_12/sequential_41/conv2d_transpose_29/stack/Unsqueeze339"/>
			</rt_info>
			<output>
				<port id="0" precision="I32">
					<dim>1</dim>
				</port>
			</output>
		</layer>
		<layer id="81" name="StatefulPartitionedCall/model_12/sequential_41/conv2d_transpose_29/stack" type="Concat" version="opset1">
			<data axis="0"/>
			<rt_info>
				<attribute name="fused_names" version="0" value="StatefulPartitionedCall/model_12/sequential_41/conv2d_transpose_29/stack, StatefulPartitionedCall/model_12/sequential_41/conv2d_transpose_29/stack/Unsqueeze335, StatefulPartitionedCall/model_12/sequential_41/conv2d_transpose_29/stack/Unsqueeze337, StatefulPartitionedCall/model_12/sequential_41/conv2d_transpose_29/stack/Unsqueeze339"/>
			</rt_info>
			<input>
				<port id="0" precision="I32">
					<dim>1</dim>
				</port>
				<port id="1" precision="I32">
					<dim>1</dim>
				</port>
				<port id="2" precision="I32">
					<dim>1</dim>
				</port>
				<port id="3" precision="I32">
					<dim>1</dim>
				</port>
			</input>
			<output>
				<port id="4" precision="I32">
					<dim>4</dim>
				</port>
			</output>
		</layer>
		<layer id="82" name="StatefulPartitionedCall/model_12/sequential_41/conv2d_transpose_29/conv2d_transpose/GatherNHWCtoNCHW_input_port_1/value39376941" type="Const" version="opset1">
			<data element_type="i32" shape="4" offset="4860388" size="16"/>
			<rt_info>
				<attribute name="fused_names" version="0" value="StatefulPartitionedCall/model_12/sequential_41/conv2d_transpose_29/conv2d_transpose/GatherNHWCtoNCHW_input_port_1/value39376941"/>
			</rt_info>
			<output>
				<port id="0" precision="I32">
					<dim>4</dim>
				</port>
			</output>
		</layer>
		<layer id="83" name="StatefulPartitionedCall/model_12/sequential_41/conv2d_transpose_29/conv2d_transpose/GatherNHWCtoNCHW_input_port_2/value39397142" type="Const" version="opset1">
			<data element_type="i64" shape="" offset="4860364" size="8"/>
			<rt_info>
				<attribute name="fused_names" version="0" value="StatefulPartitionedCall/model_12/sequential_41/conv2d_transpose_29/conv2d_transpose/GatherNHWCtoNCHW_input_port_2/value39397142"/>
			</rt_info>
			<output>
				<port id="0" precision="I64"/>
			</output>
		</layer>
		<layer id="84" name="StatefulPartitionedCall/model_12/sequential_41/conv2d_transpose_29/conv2d_transpose/GatherNHWCtoNCHW" type="Gather" version="opset8">
			<data batch_dims="0"/>
			<rt_info>
				<attribute name="fused_names" version="0" value="StatefulPartitionedCall/model_12/sequential_41/conv2d_transpose_29/conv2d_transpose/GatherNHWCtoNCHW, StatefulPartitionedCall/model_12/sequential_41/conv2d_transpose_29/conv2d_transpose/GatherNHWCtoNCHW_input_port_1/value39376941, StatefulPartitionedCall/model_12/sequential_41/conv2d_transpose_29/conv2d_transpose/GatherNHWCtoNCHW_input_port_2/value39397142"/>
			</rt_info>
			<input>
				<port id="0" precision="I32">
					<dim>4</dim>
				</port>
				<port id="1" precision="I32">
					<dim>4</dim>
				</port>
				<port id="2" precision="I64"/>
			</input>
			<output>
				<port id="3" precision="I32">
					<dim>4</dim>
				</port>
			</output>
		</layer>
		<layer id="85" name="StatefulPartitionedCall/model_12/sequential_41/conv2d_transpose_29/conv2d_transpose/ss_0_port_input_port_1/value61966929" type="Const" version="opset1">
			<data element_type="i64" shape="1" offset="4860404" size="8"/>
			<rt_info>
				<attribute name="fused_names" version="0" value="StatefulPartitionedCall/model_12/sequential_41/conv2d_transpose_29/conv2d_transpose/ss_0_port_input_port_1/value61966929"/>
			</rt_info>
			<output>
				<port id="0" precision="I64">
					<dim>1</dim>
				</port>
			</output>
		</layer>
		<layer id="86" name="StatefulPartitionedCall/model_12/sequential_41/conv2d_transpose_29/conv2d_transpose/ss_0_port_input_port_2/value61986914" type="Const" version="opset1">
			<data element_type="i64" shape="1" offset="4860412" size="8"/>
			<rt_info>
				<attribute name="fused_names" version="0" value="StatefulPartitionedCall/model_12/sequential_41/conv2d_transpose_29/conv2d_transpose/ss_0_port_input_port_2/value61986914"/>
			</rt_info>
			<output>
				<port id="0" precision="I64">
					<dim>1</dim>
				</port>
			</output>
		</layer>
		<layer id="87" name="StatefulPartitionedCall/model_12/sequential_41/conv2d_transpose_29/conv2d_transpose/ss_0_port_input_port_3/value62007067" type="Const" version="opset1">
			<data element_type="i64" shape="1" offset="4860372" size="8"/>
			<rt_info>
				<attribute name="fused_names" version="0" value="StatefulPartitionedCall/model_12/sequential_41/conv2d_transpose_29/conv2d_transpose/ss_0_port_input_port_3/value62007067"/>
			</rt_info>
			<output>
				<port id="0" precision="I64">
					<dim>1</dim>
				</port>
			</output>
		</layer>
		<layer id="88" name="StatefulPartitionedCall/model_12/sequential_41/conv2d_transpose_29/conv2d_transpose/ss_0_port" type="StridedSlice" version="opset1">
			<data begin_mask="0" end_mask="1" new_axis_mask="0" shrink_axis_mask="0" ellipsis_mask="0"/>
			<rt_info>
				<attribute name="fused_names" version="0" value="StatefulPartitionedCall/model_12/sequential_41/conv2d_transpose_29/conv2d_transpose/ss_0_port, StatefulPartitionedCall/model_12/sequential_41/conv2d_transpose_29/conv2d_transpose/ss_0_port_input_port_1/value61966929, StatefulPartitionedCall/model_12/sequential_41/conv2d_transpose_29/conv2d_transpose/ss_0_port_input_port_2/value61986914, StatefulPartitionedCall/model_12/sequential_41/conv2d_transpose_29/conv2d_transpose/ss_0_port_input_port_3/value62007067"/>
			</rt_info>
			<input>
				<port id="0" precision="I32">
					<dim>4</dim>
				</port>
				<port id="1" precision="I64">
					<dim>1</dim>
				</port>
				<port id="2" precision="I64">
					<dim>1</dim>
				</port>
				<port id="3" precision="I64">
					<dim>1</dim>
				</port>
			</input>
			<output>
				<port id="4" precision="I32">
					<dim>2</dim>
				</port>
			</output>
		</layer>
		<layer id="89" name="StatefulPartitionedCall/model_12/sequential_41/conv2d_transpose_29/conv2d_transpose/Cast_2" type="Convert" version="opset1">
			<data destination_type="i64"/>
			<rt_info>
				<attribute name="fused_names" version="0" value="StatefulPartitionedCall/model_12/sequential_41/conv2d_transpose_29/conv2d_transpose/Cast_2"/>
			</rt_info>
			<input>
				<port id="0" precision="I32">
					<dim>2</dim>
				</port>
			</input>
			<output>
				<port id="1" precision="I64">
					<dim>2</dim>
				</port>
			</output>
		</layer>
		<layer id="90" name="StatefulPartitionedCall/model_12/sequential_41/conv2d_transpose_29/conv2d_transpose" type="ConvolutionBackpropData" version="opset1">
			<data strides="2, 2" dilations="1, 1" pads_begin="0, 0" pads_end="0, 0" auto_pad="same_lower" output_padding="0, 0"/>
			<rt_info>
				<attribute name="fused_names" version="0" value="StatefulPartitionedCall/model_12/sequential_41/conv2d_transpose_29/conv2d_transpose"/>
			</rt_info>
			<input>
				<port id="0" precision="FP32">
					<dim>-1</dim>
					<dim>256</dim>
					<dim>8</dim>
					<dim>8</dim>
				</port>
				<port id="1" precision="FP32">
					<dim>256</dim>
					<dim>128</dim>
					<dim>4</dim>
					<dim>4</dim>
				</port>
				<port id="2" precision="I64">
					<dim>2</dim>
				</port>
			</input>
			<output>
				<port id="3" precision="FP32" names="Func/StatefulPartitionedCall/model_12/sequential_41/instance_normalization_25/StatefulPartitionedCall/StatefulPartitionedCall/input/_79:0,Func/StatefulPartitionedCall/model_12/sequential_41/instance_normalization_25/StatefulPartitionedCall/input/_43:0,StatefulPartitionedCall/model_12/sequential_41/conv2d_transpose_29/conv2d_transpose:0">
					<dim>-1</dim>
					<dim>128</dim>
					<dim>16</dim>
					<dim>16</dim>
				</port>
			</output>
		</layer>
		<layer id="91" name="41117061" type="Const" version="opset1">
			<data element_type="i64" shape="2" offset="139940" size="16"/>
			<rt_info>
				<attribute name="fused_names" version="0" value="41117061"/>
			</rt_info>
			<output>
				<port id="0" precision="I64">
					<dim>2</dim>
				</port>
			</output>
		</layer>
		<layer id="92" name="StatefulPartitionedCall/model_12/sequential_41/instance_normalization_25/StatefulPartitionedCall/StatefulPartitionedCall/moments/mean" type="ReduceMean" version="opset1">
			<data keep_dims="true"/>
			<rt_info>
				<attribute name="fused_names" version="0" value="StatefulPartitionedCall/model_12/sequential_41/instance_normalization_25/StatefulPartitionedCall/StatefulPartitionedCall/moments/mean"/>
			</rt_info>
			<input>
				<port id="0" precision="FP32">
					<dim>-1</dim>
					<dim>128</dim>
					<dim>16</dim>
					<dim>16</dim>
				</port>
				<port id="1" precision="I64">
					<dim>2</dim>
				</port>
			</input>
			<output>
				<port id="2" precision="FP32">
					<dim>-1</dim>
					<dim>128</dim>
					<dim>1</dim>
					<dim>1</dim>
				</port>
			</output>
		</layer>
		<layer id="93" name="StatefulPartitionedCall/model_12/sequential_41/instance_normalization_25/StatefulPartitionedCall/StatefulPartitionedCall/sub" type="Subtract" version="opset1">
			<data auto_broadcast="numpy"/>
			<rt_info>
				<attribute name="fused_names" version="0" value="StatefulPartitionedCall/model_12/sequential_41/instance_normalization_25/StatefulPartitionedCall/StatefulPartitionedCall/sub, StatefulPartitionedCall/model_12/sequential_41/instance_normalization_25/StatefulPartitionedCall/StatefulPartitionedCall/sub/neg_"/>
			</rt_info>
			<input>
				<port id="0" precision="FP32">
					<dim>-1</dim>
					<dim>128</dim>
					<dim>16</dim>
					<dim>16</dim>
				</port>
				<port id="1" precision="FP32">
					<dim>-1</dim>
					<dim>128</dim>
					<dim>1</dim>
					<dim>1</dim>
				</port>
			</input>
			<output>
				<port id="2" precision="FP32" names="StatefulPartitionedCall/model_12/sequential_41/instance_normalization_25/StatefulPartitionedCall/StatefulPartitionedCall/sub:0">
					<dim>-1</dim>
					<dim>128</dim>
					<dim>16</dim>
					<dim>16</dim>
				</port>
			</output>
		</layer>
		<layer id="94" name="StatefulPartitionedCall/model_12/sequential_41/instance_normalization_25/StatefulPartitionedCall/StatefulPartitionedCall/moments/SquaredDifference" type="SquaredDifference" version="opset1">
			<data auto_broadcast="numpy"/>
			<rt_info>
				<attribute name="fused_names" version="0" value="StatefulPartitionedCall/model_12/sequential_41/instance_normalization_25/StatefulPartitionedCall/StatefulPartitionedCall/moments/SquaredDifference"/>
			</rt_info>
			<input>
				<port id="0" precision="FP32">
					<dim>-1</dim>
					<dim>128</dim>
					<dim>16</dim>
					<dim>16</dim>
				</port>
				<port id="1" precision="FP32">
					<dim>-1</dim>
					<dim>128</dim>
					<dim>1</dim>
					<dim>1</dim>
				</port>
			</input>
			<output>
				<port id="2" precision="FP32" names="StatefulPartitionedCall/model_12/sequential_41/instance_normalization_25/StatefulPartitionedCall/StatefulPartitionedCall/moments/SquaredDifference:0">
					<dim>-1</dim>
					<dim>128</dim>
					<dim>16</dim>
					<dim>16</dim>
				</port>
			</output>
		</layer>
		<layer id="95" name="41176908" type="Const" version="opset1">
			<data element_type="i64" shape="2" offset="139940" size="16"/>
			<rt_info>
				<attribute name="fused_names" version="0" value="41176908"/>
			</rt_info>
			<output>
				<port id="0" precision="I64">
					<dim>2</dim>
				</port>
			</output>
		</layer>
		<layer id="96" name="StatefulPartitionedCall/model_12/sequential_41/instance_normalization_25/StatefulPartitionedCall/StatefulPartitionedCall/moments/variance" type="ReduceMean" version="opset1">
			<data keep_dims="true"/>
			<rt_info>
				<attribute name="fused_names" version="0" value="StatefulPartitionedCall/model_12/sequential_41/instance_normalization_25/StatefulPartitionedCall/StatefulPartitionedCall/moments/variance"/>
			</rt_info>
			<input>
				<port id="0" precision="FP32">
					<dim>-1</dim>
					<dim>128</dim>
					<dim>16</dim>
					<dim>16</dim>
				</port>
				<port id="1" precision="I64">
					<dim>2</dim>
				</port>
			</input>
			<output>
				<port id="2" precision="FP32" names="StatefulPartitionedCall/model_12/sequential_41/instance_normalization_25/StatefulPartitionedCall/StatefulPartitionedCall/moments/variance:0">
					<dim>-1</dim>
					<dim>128</dim>
					<dim>1</dim>
					<dim>1</dim>
				</port>
			</output>
		</layer>
		<layer id="97" name="StatefulPartitionedCall/model_12/sequential_41/instance_normalization_25/StatefulPartitionedCall/StatefulPartitionedCall/add/y" type="Const" version="opset1">
			<data element_type="f32" shape="1, 1, 1, 1" offset="139956" size="4"/>
			<rt_info>
				<attribute name="fused_names" version="0" value="StatefulPartitionedCall/model_12/sequential_41/instance_normalization_25/StatefulPartitionedCall/StatefulPartitionedCall/add/y"/>
			</rt_info>
			<output>
				<port id="0" precision="FP32" names="StatefulPartitionedCall/model_12/sequential_41/instance_normalization_25/StatefulPartitionedCall/StatefulPartitionedCall/add/y:0">
					<dim>1</dim>
					<dim>1</dim>
					<dim>1</dim>
					<dim>1</dim>
				</port>
			</output>
		</layer>
		<layer id="98" name="StatefulPartitionedCall/model_12/sequential_41/instance_normalization_25/StatefulPartitionedCall/StatefulPartitionedCall/add" type="Add" version="opset1">
			<data auto_broadcast="numpy"/>
			<rt_info>
				<attribute name="fused_names" version="0" value="StatefulPartitionedCall/model_12/sequential_41/instance_normalization_25/StatefulPartitionedCall/StatefulPartitionedCall/add"/>
			</rt_info>
			<input>
				<port id="0" precision="FP32">
					<dim>-1</dim>
					<dim>128</dim>
					<dim>1</dim>
					<dim>1</dim>
				</port>
				<port id="1" precision="FP32">
					<dim>1</dim>
					<dim>1</dim>
					<dim>1</dim>
					<dim>1</dim>
				</port>
			</input>
			<output>
				<port id="2" precision="FP32" names="StatefulPartitionedCall/model_12/sequential_41/instance_normalization_25/StatefulPartitionedCall/StatefulPartitionedCall/add:0">
					<dim>-1</dim>
					<dim>128</dim>
					<dim>1</dim>
					<dim>1</dim>
				</port>
			</output>
		</layer>
		<layer id="99" name="308" type="Const" version="opset1">
			<data element_type="f32" shape="1, 1, 1, 1" offset="139960" size="4"/>
			<rt_info>
				<attribute name="fused_names" version="0" value="308"/>
			</rt_info>
			<output>
				<port id="0" precision="FP32">
					<dim>1</dim>
					<dim>1</dim>
					<dim>1</dim>
					<dim>1</dim>
				</port>
			</output>
		</layer>
		<layer id="100" name="StatefulPartitionedCall/model_12/sequential_41/instance_normalization_25/StatefulPartitionedCall/StatefulPartitionedCall/Rsqrt/pow_" type="Power" version="opset1">
			<data auto_broadcast="numpy"/>
			<rt_info>
				<attribute name="fused_names" version="0" value="StatefulPartitionedCall/model_12/sequential_41/instance_normalization_25/StatefulPartitionedCall/StatefulPartitionedCall/Rsqrt/pow_"/>
			</rt_info>
			<input>
				<port id="0" precision="FP32">
					<dim>-1</dim>
					<dim>128</dim>
					<dim>1</dim>
					<dim>1</dim>
				</port>
				<port id="1" precision="FP32">
					<dim>1</dim>
					<dim>1</dim>
					<dim>1</dim>
					<dim>1</dim>
				</port>
			</input>
			<output>
				<port id="2" precision="FP32" names="StatefulPartitionedCall/model_12/sequential_41/instance_normalization_25/StatefulPartitionedCall/StatefulPartitionedCall/Rsqrt:0">
					<dim>-1</dim>
					<dim>128</dim>
					<dim>1</dim>
					<dim>1</dim>
				</port>
			</output>
		</layer>
		<layer id="101" name="StatefulPartitionedCall/model_12/sequential_41/instance_normalization_25/StatefulPartitionedCall/StatefulPartitionedCall/mul" type="Multiply" version="opset1">
			<data auto_broadcast="numpy"/>
			<rt_info>
				<attribute name="fused_names" version="0" value="StatefulPartitionedCall/model_12/sequential_41/instance_normalization_25/StatefulPartitionedCall/StatefulPartitionedCall/mul"/>
			</rt_info>
			<input>
				<port id="0" precision="FP32">
					<dim>-1</dim>
					<dim>128</dim>
					<dim>16</dim>
					<dim>16</dim>
				</port>
				<port id="1" precision="FP32">
					<dim>-1</dim>
					<dim>128</dim>
					<dim>1</dim>
					<dim>1</dim>
				</port>
			</input>
			<output>
				<port id="2" precision="FP32" names="StatefulPartitionedCall/model_12/sequential_41/instance_normalization_25/StatefulPartitionedCall/StatefulPartitionedCall/mul:0">
					<dim>-1</dim>
					<dim>128</dim>
					<dim>16</dim>
					<dim>16</dim>
				</port>
			</output>
		</layer>
		<layer id="102" name="StatefulPartitionedCall/model_12/sequential_41/instance_normalization_25/StatefulPartitionedCall/StatefulPartitionedCall/mul_1" type="Multiply" version="opset1">
			<data auto_broadcast="numpy"/>
			<rt_info>
				<attribute name="fused_names" version="0" value="StatefulPartitionedCall/model_12/sequential_41/instance_normalization_25/StatefulPartitionedCall/StatefulPartitionedCall/mul_1"/>
			</rt_info>
			<input>
				<port id="0" precision="FP32">
					<dim>1</dim>
					<dim>128</dim>
					<dim>1</dim>
					<dim>1</dim>
				</port>
				<port id="1" precision="FP32">
					<dim>-1</dim>
					<dim>128</dim>
					<dim>16</dim>
					<dim>16</dim>
				</port>
			</input>
			<output>
				<port id="2" precision="FP32" names="StatefulPartitionedCall/model_12/sequential_41/instance_normalization_25/StatefulPartitionedCall/StatefulPartitionedCall/mul_1:0">
					<dim>-1</dim>
					<dim>128</dim>
					<dim>16</dim>
					<dim>16</dim>
				</port>
			</output>
		</layer>
		<layer id="103" name="StatefulPartitionedCall/model_12/sequential_41/instance_normalization_25/StatefulPartitionedCall/StatefulPartitionedCall/add_1/ReadVariableOp" type="Const" version="opset1">
			<data element_type="f32" shape="1, 128, 1, 1" offset="4860420" size="512"/>
			<rt_info>
				<attribute name="fused_names" version="0" value="StatefulPartitionedCall/model_12/sequential_41/instance_normalization_25/StatefulPartitionedCall/StatefulPartitionedCall/add_1/ReadVariableOp"/>
			</rt_info>
			<output>
				<port id="0" precision="FP32" names="StatefulPartitionedCall/model_12/sequential_41/instance_normalization_25/StatefulPartitionedCall/StatefulPartitionedCall/add_1/ReadVariableOp:0">
					<dim>1</dim>
					<dim>128</dim>
					<dim>1</dim>
					<dim>1</dim>
				</port>
			</output>
		</layer>
		<layer id="104" name="StatefulPartitionedCall/model_12/sequential_41/instance_normalization_25/StatefulPartitionedCall/StatefulPartitionedCall/add_1" type="Add" version="opset1">
			<data auto_broadcast="numpy"/>
			<rt_info>
				<attribute name="fused_names" version="0" value="StatefulPartitionedCall/model_12/sequential_41/instance_normalization_25/StatefulPartitionedCall/StatefulPartitionedCall/add_1"/>
			</rt_info>
			<input>
				<port id="0" precision="FP32">
					<dim>-1</dim>
					<dim>128</dim>
					<dim>16</dim>
					<dim>16</dim>
				</port>
				<port id="1" precision="FP32">
					<dim>1</dim>
					<dim>128</dim>
					<dim>1</dim>
					<dim>1</dim>
				</port>
			</input>
			<output>
				<port id="2" precision="FP32" names="Func/StatefulPartitionedCall/model_12/sequential_41/instance_normalization_25/StatefulPartitionedCall/StatefulPartitionedCall/output/_82:0,Func/StatefulPartitionedCall/model_12/sequential_41/instance_normalization_25/StatefulPartitionedCall/output/_46:0,StatefulPartitionedCall/model_12/sequential_41/dropout/Identity:0,StatefulPartitionedCall/model_12/sequential_41/instance_normalization_25/StatefulPartitionedCall/Identity:0,StatefulPartitionedCall/model_12/sequential_41/instance_normalization_25/StatefulPartitionedCall/StatefulPartitionedCall/Identity:0,StatefulPartitionedCall/model_12/sequential_41/instance_normalization_25/StatefulPartitionedCall/StatefulPartitionedCall/add_1:0">
					<dim>-1</dim>
					<dim>128</dim>
					<dim>16</dim>
					<dim>16</dim>
				</port>
			</output>
		</layer>
		<layer id="105" name="StatefulPartitionedCall/model_12/sequential_41/re_lu_21/Relu" type="ReLU" version="opset1">
			<rt_info>
				<attribute name="fused_names" version="0" value="StatefulPartitionedCall/model_12/sequential_41/re_lu_21/Relu"/>
			</rt_info>
			<input>
				<port id="0" precision="FP32">
					<dim>-1</dim>
					<dim>128</dim>
					<dim>16</dim>
					<dim>16</dim>
				</port>
			</input>
			<output>
				<port id="1" precision="FP32" names="StatefulPartitionedCall/model_12/sequential_41/re_lu_21/Relu:0">
					<dim>-1</dim>
					<dim>128</dim>
					<dim>16</dim>
					<dim>16</dim>
				</port>
			</output>
		</layer>
		<layer id="106" name="StatefulPartitionedCall/model_12/concatenate_13/concat" type="Concat" version="opset1">
			<data axis="1"/>
			<rt_info>
				<attribute name="fused_names" version="0" value="StatefulPartitionedCall/model_12/concatenate_13/concat"/>
			</rt_info>
			<input>
				<port id="0" precision="FP32">
					<dim>-1</dim>
					<dim>128</dim>
					<dim>16</dim>
					<dim>16</dim>
				</port>
				<port id="1" precision="FP32">
					<dim>-1</dim>
					<dim>128</dim>
					<dim>16</dim>
					<dim>16</dim>
				</port>
			</input>
			<output>
				<port id="2" precision="FP32" names="StatefulPartitionedCall/model_12/concatenate_13/concat:0">
					<dim>-1</dim>
					<dim>256</dim>
					<dim>16</dim>
					<dim>16</dim>
				</port>
			</output>
		</layer>
		<layer id="107" name="StatefulPartitionedCall/model_12/sequential_42/conv2d_transpose_30/conv2d_transpose/ReadVariableOp" type="Const" version="opset1">
			<data element_type="f32" shape="256, 64, 4, 4" offset="4860932" size="1048576"/>
			<rt_info>
				<attribute name="fused_names" version="0" value="StatefulPartitionedCall/model_12/sequential_42/conv2d_transpose_30/conv2d_transpose/ReadVariableOp"/>
			</rt_info>
			<output>
				<port id="0" precision="FP32" names="StatefulPartitionedCall/model_12/sequential_42/conv2d_transpose_30/conv2d_transpose/ReadVariableOp:0">
					<dim>256</dim>
					<dim>64</dim>
					<dim>4</dim>
					<dim>4</dim>
				</port>
			</output>
		</layer>
		<layer id="108" name="StatefulPartitionedCall/model_12/sequential_42/conv2d_transpose_30/Shape" type="ShapeOf" version="opset3">
			<data output_type="i32"/>
			<rt_info>
				<attribute name="fused_names" version="0" value="StatefulPartitionedCall/model_12/sequential_42/conv2d_transpose_30/Shape"/>
			</rt_info>
			<input>
				<port id="0" precision="FP32">
					<dim>-1</dim>
					<dim>256</dim>
					<dim>16</dim>
					<dim>16</dim>
				</port>
			</input>
			<output>
				<port id="1" precision="I32">
					<dim>4</dim>
				</port>
			</output>
		</layer>
		<layer id="109" name="StatefulPartitionedCall/model_12/sequential_42/conv2d_transpose_30/Shape/GatherNCHWtoNHWC_input_port_1/value39076956" type="Const" version="opset1">
			<data element_type="i32" shape="4" offset="4860348" size="16"/>
			<rt_info>
				<attribute name="fused_names" version="0" value="StatefulPartitionedCall/model_12/sequential_42/conv2d_transpose_30/Shape/GatherNCHWtoNHWC_input_port_1/value39076956"/>
			</rt_info>
			<output>
				<port id="0" precision="I32">
					<dim>4</dim>
				</port>
			</output>
		</layer>
		<layer id="110" name="StatefulPartitionedCall/model_12/sequential_42/conv2d_transpose_30/Shape/GatherNCHWtoNHWC_input_port_2/value39097094" type="Const" version="opset1">
			<data element_type="i64" shape="" offset="4860364" size="8"/>
			<rt_info>
				<attribute name="fused_names" version="0" value="StatefulPartitionedCall/model_12/sequential_42/conv2d_transpose_30/Shape/GatherNCHWtoNHWC_input_port_2/value39097094"/>
			</rt_info>
			<output>
				<port id="0" precision="I64"/>
			</output>
		</layer>
		<layer id="111" name="StatefulPartitionedCall/model_12/sequential_42/conv2d_transpose_30/Shape/GatherNCHWtoNHWC" type="Gather" version="opset8">
			<data batch_dims="0"/>
			<rt_info>
				<attribute name="fused_names" version="0" value="StatefulPartitionedCall/model_12/sequential_42/conv2d_transpose_30/Shape/GatherNCHWtoNHWC, StatefulPartitionedCall/model_12/sequential_42/conv2d_transpose_30/Shape/GatherNCHWtoNHWC_input_port_1/value39076956, StatefulPartitionedCall/model_12/sequential_42/conv2d_transpose_30/Shape/GatherNCHWtoNHWC_input_port_2/value39097094"/>
			</rt_info>
			<input>
				<port id="0" precision="I32">
					<dim>4</dim>
				</port>
				<port id="1" precision="I32">
					<dim>4</dim>
				</port>
				<port id="2" precision="I64"/>
			</input>
			<output>
				<port id="3" precision="I32" names="StatefulPartitionedCall/model_12/sequential_42/conv2d_transpose_30/Shape:0">
					<dim>4</dim>
				</port>
			</output>
		</layer>
		<layer id="112" name="StatefulPartitionedCall/model_12/sequential_42/conv2d_transpose_30/strided_slice/stack" type="Const" version="opset1">
			<data element_type="i64" shape="1" offset="4860364" size="8"/>
			<rt_info>
				<attribute name="fused_names" version="0" value="StatefulPartitionedCall/model_12/sequential_42/conv2d_transpose_30/strided_slice/stack"/>
			</rt_info>
			<output>
				<port id="0" precision="I64" names="StatefulPartitionedCall/model_12/sequential_42/conv2d_transpose_30/strided_slice/stack:0">
					<dim>1</dim>
				</port>
			</output>
		</layer>
		<layer id="113" name="StatefulPartitionedCall/model_12/sequential_42/conv2d_transpose_30/strided_slice/stack_1" type="Const" version="opset1">
			<data element_type="i64" shape="1" offset="4860372" size="8"/>
			<rt_info>
				<attribute name="fused_names" version="0" value="StatefulPartitionedCall/model_12/sequential_42/conv2d_transpose_30/strided_slice/stack_1"/>
			</rt_info>
			<output>
				<port id="0" precision="I64" names="StatefulPartitionedCall/model_12/sequential_42/conv2d_transpose_30/strided_slice/stack_1:0">
					<dim>1</dim>
				</port>
			</output>
		</layer>
		<layer id="114" name="StatefulPartitionedCall/model_12/sequential_42/conv2d_transpose_30/strided_slice/stack_2" type="Const" version="opset1">
			<data element_type="i64" shape="1" offset="4860372" size="8"/>
			<rt_info>
				<attribute name="fused_names" version="0" value="StatefulPartitionedCall/model_12/sequential_42/conv2d_transpose_30/strided_slice/stack_2"/>
			</rt_info>
			<output>
				<port id="0" precision="I64" names="StatefulPartitionedCall/model_12/sequential_42/conv2d_transpose_30/strided_slice/stack_2:0">
					<dim>1</dim>
				</port>
			</output>
		</layer>
		<layer id="115" name="StatefulPartitionedCall/model_12/sequential_42/conv2d_transpose_30/strided_slice" type="StridedSlice" version="opset1">
			<data begin_mask="0" end_mask="0" new_axis_mask="0" shrink_axis_mask="1" ellipsis_mask="0"/>
			<rt_info>
				<attribute name="fused_names" version="0" value="StatefulPartitionedCall/model_12/sequential_42/conv2d_transpose_30/strided_slice, StatefulPartitionedCall/model_12/sequential_42/conv2d_transpose_30/strided_slice/stack, StatefulPartitionedCall/model_12/sequential_42/conv2d_transpose_30/strided_slice/stack_1, StatefulPartitionedCall/model_12/sequential_42/conv2d_transpose_30/strided_slice/stack_2"/>
			</rt_info>
			<input>
				<port id="0" precision="I32">
					<dim>4</dim>
				</port>
				<port id="1" precision="I64">
					<dim>1</dim>
				</port>
				<port id="2" precision="I64">
					<dim>1</dim>
				</port>
				<port id="3" precision="I64">
					<dim>1</dim>
				</port>
			</input>
			<output>
				<port id="4" precision="I32" names="StatefulPartitionedCall/model_12/sequential_42/conv2d_transpose_30/strided_slice:0"/>
			</output>
		</layer>
		<layer id="116" name="StatefulPartitionedCall/model_12/sequential_42/conv2d_transpose_30/stack/Unsqueeze_input_port_1/value" type="Const" version="opset1">
			<data element_type="i64" shape="1" offset="4860364" size="8"/>
			<rt_info>
				<attribute name="fused_names" version="0" value="StatefulPartitionedCall/model_12/sequential_42/conv2d_transpose_30/stack/Unsqueeze_input_port_1/value"/>
			</rt_info>
			<output>
				<port id="0" precision="I64">
					<dim>1</dim>
				</port>
			</output>
		</layer>
		<layer id="117" name="StatefulPartitionedCall/model_12/sequential_42/conv2d_transpose_30/stack/Unsqueeze" type="Unsqueeze" version="opset1">
			<rt_info>
				<attribute name="fused_names" version="0" value="StatefulPartitionedCall/model_12/sequential_42/conv2d_transpose_30/stack/Unsqueeze, StatefulPartitionedCall/model_12/sequential_42/conv2d_transpose_30/stack/Unsqueeze_input_port_1/value"/>
			</rt_info>
			<input>
				<port id="0" precision="I32"/>
				<port id="1" precision="I64">
					<dim>1</dim>
				</port>
			</input>
			<output>
				<port id="2" precision="I32">
					<dim>1</dim>
				</port>
			</output>
		</layer>
		<layer id="118" name="StatefulPartitionedCall/model_12/sequential_42/conv2d_transpose_30/stack/Unsqueeze344" type="Const" version="opset1">
			<data element_type="i32" shape="1" offset="5909508" size="4"/>
			<rt_info>
				<attribute name="fused_names" version="0" value="StatefulPartitionedCall/model_12/sequential_42/conv2d_transpose_30/stack/Unsqueeze344"/>
			</rt_info>
			<output>
				<port id="0" precision="I32">
					<dim>1</dim>
				</port>
			</output>
		</layer>
		<layer id="119" name="StatefulPartitionedCall/model_12/sequential_42/conv2d_transpose_30/stack/Unsqueeze346" type="Const" version="opset1">
			<data element_type="i32" shape="1" offset="5909508" size="4"/>
			<rt_info>
				<attribute name="fused_names" version="0" value="StatefulPartitionedCall/model_12/sequential_42/conv2d_transpose_30/stack/Unsqueeze346"/>
			</rt_info>
			<output>
				<port id="0" precision="I32">
					<dim>1</dim>
				</port>
			</output>
		</layer>
		<layer id="120" name="StatefulPartitionedCall/model_12/sequential_42/conv2d_transpose_30/stack/Unsqueeze348" type="Const" version="opset1">
			<data element_type="i32" shape="1" offset="5909512" size="4"/>
			<rt_info>
				<attribute name="fused_names" version="0" value="StatefulPartitionedCall/model_12/sequential_42/conv2d_transpose_30/stack/Unsqueeze348"/>
			</rt_info>
			<output>
				<port id="0" precision="I32">
					<dim>1</dim>
				</port>
			</output>
		</layer>
		<layer id="121" name="StatefulPartitionedCall/model_12/sequential_42/conv2d_transpose_30/stack" type="Concat" version="opset1">
			<data axis="0"/>
			<rt_info>
				<attribute name="fused_names" version="0" value="StatefulPartitionedCall/model_12/sequential_42/conv2d_transpose_30/stack, StatefulPartitionedCall/model_12/sequential_42/conv2d_transpose_30/stack/Unsqueeze344, StatefulPartitionedCall/model_12/sequential_42/conv2d_transpose_30/stack/Unsqueeze346, StatefulPartitionedCall/model_12/sequential_42/conv2d_transpose_30/stack/Unsqueeze348"/>
			</rt_info>
			<input>
				<port id="0" precision="I32">
					<dim>1</dim>
				</port>
				<port id="1" precision="I32">
					<dim>1</dim>
				</port>
				<port id="2" precision="I32">
					<dim>1</dim>
				</port>
				<port id="3" precision="I32">
					<dim>1</dim>
				</port>
			</input>
			<output>
				<port id="4" precision="I32">
					<dim>4</dim>
				</port>
			</output>
		</layer>
		<layer id="122" name="StatefulPartitionedCall/model_12/sequential_42/conv2d_transpose_30/conv2d_transpose/GatherNHWCtoNCHW_input_port_1/value39437016" type="Const" version="opset1">
			<data element_type="i32" shape="4" offset="4860388" size="16"/>
			<rt_info>
				<attribute name="fused_names" version="0" value="StatefulPartitionedCall/model_12/sequential_42/conv2d_transpose_30/conv2d_transpose/GatherNHWCtoNCHW_input_port_1/value39437016"/>
			</rt_info>
			<output>
				<port id="0" precision="I32">
					<dim>4</dim>
				</port>
			</output>
		</layer>
		<layer id="123" name="StatefulPartitionedCall/model_12/sequential_42/conv2d_transpose_30/conv2d_transpose/GatherNHWCtoNCHW_input_port_2/value39456968" type="Const" version="opset1">
			<data element_type="i64" shape="" offset="4860364" size="8"/>
			<rt_info>
				<attribute name="fused_names" version="0" value="StatefulPartitionedCall/model_12/sequential_42/conv2d_transpose_30/conv2d_transpose/GatherNHWCtoNCHW_input_port_2/value39456968"/>
			</rt_info>
			<output>
				<port id="0" precision="I64"/>
			</output>
		</layer>
		<layer id="124" name="StatefulPartitionedCall/model_12/sequential_42/conv2d_transpose_30/conv2d_transpose/GatherNHWCtoNCHW" type="Gather" version="opset8">
			<data batch_dims="0"/>
			<rt_info>
				<attribute name="fused_names" version="0" value="StatefulPartitionedCall/model_12/sequential_42/conv2d_transpose_30/conv2d_transpose/GatherNHWCtoNCHW, StatefulPartitionedCall/model_12/sequential_42/conv2d_transpose_30/conv2d_transpose/GatherNHWCtoNCHW_input_port_1/value39437016, StatefulPartitionedCall/model_12/sequential_42/conv2d_transpose_30/conv2d_transpose/GatherNHWCtoNCHW_input_port_2/value39456968"/>
			</rt_info>
			<input>
				<port id="0" precision="I32">
					<dim>4</dim>
				</port>
				<port id="1" precision="I32">
					<dim>4</dim>
				</port>
				<port id="2" precision="I64"/>
			</input>
			<output>
				<port id="3" precision="I32">
					<dim>4</dim>
				</port>
			</output>
		</layer>
		<layer id="125" name="StatefulPartitionedCall/model_12/sequential_42/conv2d_transpose_30/conv2d_transpose/ss_0_port_input_port_1/value61887214" type="Const" version="opset1">
			<data element_type="i64" shape="1" offset="4860404" size="8"/>
			<rt_info>
				<attribute name="fused_names" version="0" value="StatefulPartitionedCall/model_12/sequential_42/conv2d_transpose_30/conv2d_transpose/ss_0_port_input_port_1/value61887214"/>
			</rt_info>
			<output>
				<port id="0" precision="I64">
					<dim>1</dim>
				</port>
			</output>
		</layer>
		<layer id="126" name="StatefulPartitionedCall/model_12/sequential_42/conv2d_transpose_30/conv2d_transpose/ss_0_port_input_port_2/value61907178" type="Const" version="opset1">
			<data element_type="i64" shape="1" offset="4860412" size="8"/>
			<rt_info>
				<attribute name="fused_names" version="0" value="StatefulPartitionedCall/model_12/sequential_42/conv2d_transpose_30/conv2d_transpose/ss_0_port_input_port_2/value61907178"/>
			</rt_info>
			<output>
				<port id="0" precision="I64">
					<dim>1</dim>
				</port>
			</output>
		</layer>
		<layer id="127" name="StatefulPartitionedCall/model_12/sequential_42/conv2d_transpose_30/conv2d_transpose/ss_0_port_input_port_3/value61927007" type="Const" version="opset1">
			<data element_type="i64" shape="1" offset="4860372" size="8"/>
			<rt_info>
				<attribute name="fused_names" version="0" value="StatefulPartitionedCall/model_12/sequential_42/conv2d_transpose_30/conv2d_transpose/ss_0_port_input_port_3/value61927007"/>
			</rt_info>
			<output>
				<port id="0" precision="I64">
					<dim>1</dim>
				</port>
			</output>
		</layer>
		<layer id="128" name="StatefulPartitionedCall/model_12/sequential_42/conv2d_transpose_30/conv2d_transpose/ss_0_port" type="StridedSlice" version="opset1">
			<data begin_mask="0" end_mask="1" new_axis_mask="0" shrink_axis_mask="0" ellipsis_mask="0"/>
			<rt_info>
				<attribute name="fused_names" version="0" value="StatefulPartitionedCall/model_12/sequential_42/conv2d_transpose_30/conv2d_transpose/ss_0_port, StatefulPartitionedCall/model_12/sequential_42/conv2d_transpose_30/conv2d_transpose/ss_0_port_input_port_1/value61887214, StatefulPartitionedCall/model_12/sequential_42/conv2d_transpose_30/conv2d_transpose/ss_0_port_input_port_2/value61907178, StatefulPartitionedCall/model_12/sequential_42/conv2d_transpose_30/conv2d_transpose/ss_0_port_input_port_3/value61927007"/>
			</rt_info>
			<input>
				<port id="0" precision="I32">
					<dim>4</dim>
				</port>
				<port id="1" precision="I64">
					<dim>1</dim>
				</port>
				<port id="2" precision="I64">
					<dim>1</dim>
				</port>
				<port id="3" precision="I64">
					<dim>1</dim>
				</port>
			</input>
			<output>
				<port id="4" precision="I32">
					<dim>2</dim>
				</port>
			</output>
		</layer>
		<layer id="129" name="StatefulPartitionedCall/model_12/sequential_42/conv2d_transpose_30/conv2d_transpose/Cast_2" type="Convert" version="opset1">
			<data destination_type="i64"/>
			<rt_info>
				<attribute name="fused_names" version="0" value="StatefulPartitionedCall/model_12/sequential_42/conv2d_transpose_30/conv2d_transpose/Cast_2"/>
			</rt_info>
			<input>
				<port id="0" precision="I32">
					<dim>2</dim>
				</port>
			</input>
			<output>
				<port id="1" precision="I64">
					<dim>2</dim>
				</port>
			</output>
		</layer>
		<layer id="130" name="StatefulPartitionedCall/model_12/sequential_42/conv2d_transpose_30/conv2d_transpose" type="ConvolutionBackpropData" version="opset1">
			<data strides="2, 2" dilations="1, 1" pads_begin="0, 0" pads_end="0, 0" auto_pad="same_lower" output_padding="0, 0"/>
			<rt_info>
				<attribute name="fused_names" version="0" value="StatefulPartitionedCall/model_12/sequential_42/conv2d_transpose_30/conv2d_transpose"/>
			</rt_info>
			<input>
				<port id="0" precision="FP32">
					<dim>-1</dim>
					<dim>256</dim>
					<dim>16</dim>
					<dim>16</dim>
				</port>
				<port id="1" precision="FP32">
					<dim>256</dim>
					<dim>64</dim>
					<dim>4</dim>
					<dim>4</dim>
				</port>
				<port id="2" precision="I64">
					<dim>2</dim>
				</port>
			</input>
			<output>
				<port id="3" precision="FP32" names="Func/StatefulPartitionedCall/model_12/sequential_42/instance_normalization_26/StatefulPartitionedCall/StatefulPartitionedCall/input/_85:0,Func/StatefulPartitionedCall/model_12/sequential_42/instance_normalization_26/StatefulPartitionedCall/input/_49:0,StatefulPartitionedCall/model_12/sequential_42/conv2d_transpose_30/conv2d_transpose:0">
					<dim>-1</dim>
					<dim>64</dim>
					<dim>32</dim>
					<dim>32</dim>
				</port>
			</output>
		</layer>
		<layer id="131" name="41277232" type="Const" version="opset1">
			<data element_type="i64" shape="2" offset="139940" size="16"/>
			<rt_info>
				<attribute name="fused_names" version="0" value="41277232"/>
			</rt_info>
			<output>
				<port id="0" precision="I64">
					<dim>2</dim>
				</port>
			</output>
		</layer>
		<layer id="132" name="StatefulPartitionedCall/model_12/sequential_42/instance_normalization_26/StatefulPartitionedCall/StatefulPartitionedCall/moments/mean" type="ReduceMean" version="opset1">
			<data keep_dims="true"/>
			<rt_info>
				<attribute name="fused_names" version="0" value="StatefulPartitionedCall/model_12/sequential_42/instance_normalization_26/StatefulPartitionedCall/StatefulPartitionedCall/moments/mean"/>
			</rt_info>
			<input>
				<port id="0" precision="FP32">
					<dim>-1</dim>
					<dim>64</dim>
					<dim>32</dim>
					<dim>32</dim>
				</port>
				<port id="1" precision="I64">
					<dim>2</dim>
				</port>
			</input>
			<output>
				<port id="2" precision="FP32">
					<dim>-1</dim>
					<dim>64</dim>
					<dim>1</dim>
					<dim>1</dim>
				</port>
			</output>
		</layer>
		<layer id="133" name="StatefulPartitionedCall/model_12/sequential_42/instance_normalization_26/StatefulPartitionedCall/StatefulPartitionedCall/sub" type="Subtract" version="opset1">
			<data auto_broadcast="numpy"/>
			<rt_info>
				<attribute name="fused_names" version="0" value="StatefulPartitionedCall/model_12/sequential_42/instance_normalization_26/StatefulPartitionedCall/StatefulPartitionedCall/sub, StatefulPartitionedCall/model_12/sequential_42/instance_normalization_26/StatefulPartitionedCall/StatefulPartitionedCall/sub/neg_"/>
			</rt_info>
			<input>
				<port id="0" precision="FP32">
					<dim>-1</dim>
					<dim>64</dim>
					<dim>32</dim>
					<dim>32</dim>
				</port>
				<port id="1" precision="FP32">
					<dim>-1</dim>
					<dim>64</dim>
					<dim>1</dim>
					<dim>1</dim>
				</port>
			</input>
			<output>
				<port id="2" precision="FP32" names="StatefulPartitionedCall/model_12/sequential_42/instance_normalization_26/StatefulPartitionedCall/StatefulPartitionedCall/sub:0">
					<dim>-1</dim>
					<dim>64</dim>
					<dim>32</dim>
					<dim>32</dim>
				</port>
			</output>
		</layer>
		<layer id="134" name="StatefulPartitionedCall/model_12/sequential_42/instance_normalization_26/StatefulPartitionedCall/StatefulPartitionedCall/moments/SquaredDifference" type="SquaredDifference" version="opset1">
			<data auto_broadcast="numpy"/>
			<rt_info>
				<attribute name="fused_names" version="0" value="StatefulPartitionedCall/model_12/sequential_42/instance_normalization_26/StatefulPartitionedCall/StatefulPartitionedCall/moments/SquaredDifference"/>
			</rt_info>
			<input>
				<port id="0" precision="FP32">
					<dim>-1</dim>
					<dim>64</dim>
					<dim>32</dim>
					<dim>32</dim>
				</port>
				<port id="1" precision="FP32">
					<dim>-1</dim>
					<dim>64</dim>
					<dim>1</dim>
					<dim>1</dim>
				</port>
			</input>
			<output>
				<port id="2" precision="FP32" names="StatefulPartitionedCall/model_12/sequential_42/instance_normalization_26/StatefulPartitionedCall/StatefulPartitionedCall/moments/SquaredDifference:0">
					<dim>-1</dim>
					<dim>64</dim>
					<dim>32</dim>
					<dim>32</dim>
				</port>
			</output>
		</layer>
		<layer id="135" name="41336902" type="Const" version="opset1">
			<data element_type="i64" shape="2" offset="139940" size="16"/>
			<rt_info>
				<attribute name="fused_names" version="0" value="41336902"/>
			</rt_info>
			<output>
				<port id="0" precision="I64">
					<dim>2</dim>
				</port>
			</output>
		</layer>
		<layer id="136" name="StatefulPartitionedCall/model_12/sequential_42/instance_normalization_26/StatefulPartitionedCall/StatefulPartitionedCall/moments/variance" type="ReduceMean" version="opset1">
			<data keep_dims="true"/>
			<rt_info>
				<attribute name="fused_names" version="0" value="StatefulPartitionedCall/model_12/sequential_42/instance_normalization_26/StatefulPartitionedCall/StatefulPartitionedCall/moments/variance"/>
			</rt_info>
			<input>
				<port id="0" precision="FP32">
					<dim>-1</dim>
					<dim>64</dim>
					<dim>32</dim>
					<dim>32</dim>
				</port>
				<port id="1" precision="I64">
					<dim>2</dim>
				</port>
			</input>
			<output>
				<port id="2" precision="FP32" names="StatefulPartitionedCall/model_12/sequential_42/instance_normalization_26/StatefulPartitionedCall/StatefulPartitionedCall/moments/variance:0">
					<dim>-1</dim>
					<dim>64</dim>
					<dim>1</dim>
					<dim>1</dim>
				</port>
			</output>
		</layer>
		<layer id="137" name="StatefulPartitionedCall/model_12/sequential_42/instance_normalization_26/StatefulPartitionedCall/StatefulPartitionedCall/add/y" type="Const" version="opset1">
			<data element_type="f32" shape="1, 1, 1, 1" offset="139956" size="4"/>
			<rt_info>
				<attribute name="fused_names" version="0" value="StatefulPartitionedCall/model_12/sequential_42/instance_normalization_26/StatefulPartitionedCall/StatefulPartitionedCall/add/y"/>
			</rt_info>
			<output>
				<port id="0" precision="FP32" names="StatefulPartitionedCall/model_12/sequential_42/instance_normalization_26/StatefulPartitionedCall/StatefulPartitionedCall/add/y:0">
					<dim>1</dim>
					<dim>1</dim>
					<dim>1</dim>
					<dim>1</dim>
				</port>
			</output>
		</layer>
		<layer id="138" name="StatefulPartitionedCall/model_12/sequential_42/instance_normalization_26/StatefulPartitionedCall/StatefulPartitionedCall/add" type="Add" version="opset1">
			<data auto_broadcast="numpy"/>
			<rt_info>
				<attribute name="fused_names" version="0" value="StatefulPartitionedCall/model_12/sequential_42/instance_normalization_26/StatefulPartitionedCall/StatefulPartitionedCall/add"/>
			</rt_info>
			<input>
				<port id="0" precision="FP32">
					<dim>-1</dim>
					<dim>64</dim>
					<dim>1</dim>
					<dim>1</dim>
				</port>
				<port id="1" precision="FP32">
					<dim>1</dim>
					<dim>1</dim>
					<dim>1</dim>
					<dim>1</dim>
				</port>
			</input>
			<output>
				<port id="2" precision="FP32" names="StatefulPartitionedCall/model_12/sequential_42/instance_normalization_26/StatefulPartitionedCall/StatefulPartitionedCall/add:0">
					<dim>-1</dim>
					<dim>64</dim>
					<dim>1</dim>
					<dim>1</dim>
				</port>
			</output>
		</layer>
		<layer id="139" name="306" type="Const" version="opset1">
			<data element_type="f32" shape="1, 1, 1, 1" offset="139960" size="4"/>
			<rt_info>
				<attribute name="fused_names" version="0" value="306"/>
			</rt_info>
			<output>
				<port id="0" precision="FP32">
					<dim>1</dim>
					<dim>1</dim>
					<dim>1</dim>
					<dim>1</dim>
				</port>
			</output>
		</layer>
		<layer id="140" name="StatefulPartitionedCall/model_12/sequential_42/instance_normalization_26/StatefulPartitionedCall/StatefulPartitionedCall/Rsqrt/pow_" type="Power" version="opset1">
			<data auto_broadcast="numpy"/>
			<rt_info>
				<attribute name="fused_names" version="0" value="StatefulPartitionedCall/model_12/sequential_42/instance_normalization_26/StatefulPartitionedCall/StatefulPartitionedCall/Rsqrt/pow_"/>
			</rt_info>
			<input>
				<port id="0" precision="FP32">
					<dim>-1</dim>
					<dim>64</dim>
					<dim>1</dim>
					<dim>1</dim>
				</port>
				<port id="1" precision="FP32">
					<dim>1</dim>
					<dim>1</dim>
					<dim>1</dim>
					<dim>1</dim>
				</port>
			</input>
			<output>
				<port id="2" precision="FP32" names="StatefulPartitionedCall/model_12/sequential_42/instance_normalization_26/StatefulPartitionedCall/StatefulPartitionedCall/Rsqrt:0">
					<dim>-1</dim>
					<dim>64</dim>
					<dim>1</dim>
					<dim>1</dim>
				</port>
			</output>
		</layer>
		<layer id="141" name="StatefulPartitionedCall/model_12/sequential_42/instance_normalization_26/StatefulPartitionedCall/StatefulPartitionedCall/mul" type="Multiply" version="opset1">
			<data auto_broadcast="numpy"/>
			<rt_info>
				<attribute name="fused_names" version="0" value="StatefulPartitionedCall/model_12/sequential_42/instance_normalization_26/StatefulPartitionedCall/StatefulPartitionedCall/mul"/>
			</rt_info>
			<input>
				<port id="0" precision="FP32">
					<dim>-1</dim>
					<dim>64</dim>
					<dim>32</dim>
					<dim>32</dim>
				</port>
				<port id="1" precision="FP32">
					<dim>-1</dim>
					<dim>64</dim>
					<dim>1</dim>
					<dim>1</dim>
				</port>
			</input>
			<output>
				<port id="2" precision="FP32" names="StatefulPartitionedCall/model_12/sequential_42/instance_normalization_26/StatefulPartitionedCall/StatefulPartitionedCall/mul:0">
					<dim>-1</dim>
					<dim>64</dim>
					<dim>32</dim>
					<dim>32</dim>
				</port>
			</output>
		</layer>
		<layer id="142" name="StatefulPartitionedCall/model_12/sequential_42/instance_normalization_26/StatefulPartitionedCall/StatefulPartitionedCall/mul_1" type="Multiply" version="opset1">
			<data auto_broadcast="numpy"/>
			<rt_info>
				<attribute name="fused_names" version="0" value="StatefulPartitionedCall/model_12/sequential_42/instance_normalization_26/StatefulPartitionedCall/StatefulPartitionedCall/mul_1"/>
			</rt_info>
			<input>
				<port id="0" precision="FP32">
					<dim>1</dim>
					<dim>64</dim>
					<dim>1</dim>
					<dim>1</dim>
				</port>
				<port id="1" precision="FP32">
					<dim>-1</dim>
					<dim>64</dim>
					<dim>32</dim>
					<dim>32</dim>
				</port>
			</input>
			<output>
				<port id="2" precision="FP32" names="StatefulPartitionedCall/model_12/sequential_42/instance_normalization_26/StatefulPartitionedCall/StatefulPartitionedCall/mul_1:0">
					<dim>-1</dim>
					<dim>64</dim>
					<dim>32</dim>
					<dim>32</dim>
				</port>
			</output>
		</layer>
		<layer id="143" name="StatefulPartitionedCall/model_12/sequential_42/instance_normalization_26/StatefulPartitionedCall/StatefulPartitionedCall/add_1/ReadVariableOp" type="Const" version="opset1">
			<data element_type="f32" shape="1, 64, 1, 1" offset="5909516" size="256"/>
			<rt_info>
				<attribute name="fused_names" version="0" value="StatefulPartitionedCall/model_12/sequential_42/instance_normalization_26/StatefulPartitionedCall/StatefulPartitionedCall/add_1/ReadVariableOp"/>
			</rt_info>
			<output>
				<port id="0" precision="FP32" names="StatefulPartitionedCall/model_12/sequential_42/instance_normalization_26/StatefulPartitionedCall/StatefulPartitionedCall/add_1/ReadVariableOp:0">
					<dim>1</dim>
					<dim>64</dim>
					<dim>1</dim>
					<dim>1</dim>
				</port>
			</output>
		</layer>
		<layer id="144" name="StatefulPartitionedCall/model_12/sequential_42/instance_normalization_26/StatefulPartitionedCall/StatefulPartitionedCall/add_1" type="Add" version="opset1">
			<data auto_broadcast="numpy"/>
			<rt_info>
				<attribute name="fused_names" version="0" value="StatefulPartitionedCall/model_12/sequential_42/instance_normalization_26/StatefulPartitionedCall/StatefulPartitionedCall/add_1"/>
			</rt_info>
			<input>
				<port id="0" precision="FP32">
					<dim>-1</dim>
					<dim>64</dim>
					<dim>32</dim>
					<dim>32</dim>
				</port>
				<port id="1" precision="FP32">
					<dim>1</dim>
					<dim>64</dim>
					<dim>1</dim>
					<dim>1</dim>
				</port>
			</input>
			<output>
				<port id="2" precision="FP32" names="Func/StatefulPartitionedCall/model_12/sequential_42/instance_normalization_26/StatefulPartitionedCall/StatefulPartitionedCall/output/_88:0,Func/StatefulPartitionedCall/model_12/sequential_42/instance_normalization_26/StatefulPartitionedCall/output/_52:0,StatefulPartitionedCall/model_12/sequential_42/instance_normalization_26/StatefulPartitionedCall/Identity:0,StatefulPartitionedCall/model_12/sequential_42/instance_normalization_26/StatefulPartitionedCall/StatefulPartitionedCall/Identity:0,StatefulPartitionedCall/model_12/sequential_42/instance_normalization_26/StatefulPartitionedCall/StatefulPartitionedCall/add_1:0">
					<dim>-1</dim>
					<dim>64</dim>
					<dim>32</dim>
					<dim>32</dim>
				</port>
			</output>
		</layer>
		<layer id="145" name="StatefulPartitionedCall/model_12/sequential_42/re_lu_22/Relu" type="ReLU" version="opset1">
			<rt_info>
				<attribute name="fused_names" version="0" value="StatefulPartitionedCall/model_12/sequential_42/re_lu_22/Relu"/>
			</rt_info>
			<input>
				<port id="0" precision="FP32">
					<dim>-1</dim>
					<dim>64</dim>
					<dim>32</dim>
					<dim>32</dim>
				</port>
			</input>
			<output>
				<port id="1" precision="FP32" names="StatefulPartitionedCall/model_12/sequential_42/re_lu_22/Relu:0">
					<dim>-1</dim>
					<dim>64</dim>
					<dim>32</dim>
					<dim>32</dim>
				</port>
			</output>
		</layer>
		<layer id="146" name="StatefulPartitionedCall/model_12/concatenate_13/concat_1" type="Concat" version="opset1">
			<data axis="1"/>
			<rt_info>
				<attribute name="fused_names" version="0" value="StatefulPartitionedCall/model_12/concatenate_13/concat_1"/>
			</rt_info>
			<input>
				<port id="0" precision="FP32">
					<dim>-1</dim>
					<dim>64</dim>
					<dim>32</dim>
					<dim>32</dim>
				</port>
				<port id="1" precision="FP32">
					<dim>-1</dim>
					<dim>64</dim>
					<dim>32</dim>
					<dim>32</dim>
				</port>
			</input>
			<output>
				<port id="2" precision="FP32" names="StatefulPartitionedCall/model_12/concatenate_13/concat_1:0">
					<dim>-1</dim>
					<dim>128</dim>
					<dim>32</dim>
					<dim>32</dim>
				</port>
			</output>
		</layer>
		<layer id="147" name="StatefulPartitionedCall/model_12/sequential_43/conv2d_transpose_31/conv2d_transpose/ReadVariableOp" type="Const" version="opset1">
			<data element_type="f32" shape="128, 32, 4, 4" offset="5909772" size="262144"/>
			<rt_info>
				<attribute name="fused_names" version="0" value="StatefulPartitionedCall/model_12/sequential_43/conv2d_transpose_31/conv2d_transpose/ReadVariableOp"/>
			</rt_info>
			<output>
				<port id="0" precision="FP32" names="StatefulPartitionedCall/model_12/sequential_43/conv2d_transpose_31/conv2d_transpose/ReadVariableOp:0">
					<dim>128</dim>
					<dim>32</dim>
					<dim>4</dim>
					<dim>4</dim>
				</port>
			</output>
		</layer>
		<layer id="148" name="StatefulPartitionedCall/model_12/sequential_43/conv2d_transpose_31/Shape" type="ShapeOf" version="opset3">
			<data output_type="i32"/>
			<rt_info>
				<attribute name="fused_names" version="0" value="StatefulPartitionedCall/model_12/sequential_43/conv2d_transpose_31/Shape"/>
			</rt_info>
			<input>
				<port id="0" precision="FP32">
					<dim>-1</dim>
					<dim>128</dim>
					<dim>32</dim>
					<dim>32</dim>
				</port>
			</input>
			<output>
				<port id="1" precision="I32">
					<dim>4</dim>
				</port>
			</output>
		</layer>
		<layer id="149" name="StatefulPartitionedCall/model_12/sequential_43/conv2d_transpose_31/Shape/GatherNCHWtoNHWC_input_port_1/value39136959" type="Const" version="opset1">
			<data element_type="i32" shape="4" offset="4860348" size="16"/>
			<rt_info>
				<attribute name="fused_names" version="0" value="StatefulPartitionedCall/model_12/sequential_43/conv2d_transpose_31/Shape/GatherNCHWtoNHWC_input_port_1/value39136959"/>
			</rt_info>
			<output>
				<port id="0" precision="I32">
					<dim>4</dim>
				</port>
			</output>
		</layer>
		<layer id="150" name="StatefulPartitionedCall/model_12/sequential_43/conv2d_transpose_31/Shape/GatherNCHWtoNHWC_input_port_2/value39157184" type="Const" version="opset1">
			<data element_type="i64" shape="" offset="4860364" size="8"/>
			<rt_info>
				<attribute name="fused_names" version="0" value="StatefulPartitionedCall/model_12/sequential_43/conv2d_transpose_31/Shape/GatherNCHWtoNHWC_input_port_2/value39157184"/>
			</rt_info>
			<output>
				<port id="0" precision="I64"/>
			</output>
		</layer>
		<layer id="151" name="StatefulPartitionedCall/model_12/sequential_43/conv2d_transpose_31/Shape/GatherNCHWtoNHWC" type="Gather" version="opset8">
			<data batch_dims="0"/>
			<rt_info>
				<attribute name="fused_names" version="0" value="StatefulPartitionedCall/model_12/sequential_43/conv2d_transpose_31/Shape/GatherNCHWtoNHWC, StatefulPartitionedCall/model_12/sequential_43/conv2d_transpose_31/Shape/GatherNCHWtoNHWC_input_port_1/value39136959, StatefulPartitionedCall/model_12/sequential_43/conv2d_transpose_31/Shape/GatherNCHWtoNHWC_input_port_2/value39157184"/>
			</rt_info>
			<input>
				<port id="0" precision="I32">
					<dim>4</dim>
				</port>
				<port id="1" precision="I32">
					<dim>4</dim>
				</port>
				<port id="2" precision="I64"/>
			</input>
			<output>
				<port id="3" precision="I32" names="StatefulPartitionedCall/model_12/sequential_43/conv2d_transpose_31/Shape:0">
					<dim>4</dim>
				</port>
			</output>
		</layer>
		<layer id="152" name="StatefulPartitionedCall/model_12/sequential_43/conv2d_transpose_31/strided_slice/stack" type="Const" version="opset1">
			<data element_type="i64" shape="1" offset="4860364" size="8"/>
			<rt_info>
				<attribute name="fused_names" version="0" value="StatefulPartitionedCall/model_12/sequential_43/conv2d_transpose_31/strided_slice/stack"/>
			</rt_info>
			<output>
				<port id="0" precision="I64" names="StatefulPartitionedCall/model_12/sequential_43/conv2d_transpose_31/strided_slice/stack:0">
					<dim>1</dim>
				</port>
			</output>
		</layer>
		<layer id="153" name="StatefulPartitionedCall/model_12/sequential_43/conv2d_transpose_31/strided_slice/stack_1" type="Const" version="opset1">
			<data element_type="i64" shape="1" offset="4860372" size="8"/>
			<rt_info>
				<attribute name="fused_names" version="0" value="StatefulPartitionedCall/model_12/sequential_43/conv2d_transpose_31/strided_slice/stack_1"/>
			</rt_info>
			<output>
				<port id="0" precision="I64" names="StatefulPartitionedCall/model_12/sequential_43/conv2d_transpose_31/strided_slice/stack_1:0">
					<dim>1</dim>
				</port>
			</output>
		</layer>
		<layer id="154" name="StatefulPartitionedCall/model_12/sequential_43/conv2d_transpose_31/strided_slice/stack_2" type="Const" version="opset1">
			<data element_type="i64" shape="1" offset="4860372" size="8"/>
			<rt_info>
				<attribute name="fused_names" version="0" value="StatefulPartitionedCall/model_12/sequential_43/conv2d_transpose_31/strided_slice/stack_2"/>
			</rt_info>
			<output>
				<port id="0" precision="I64" names="StatefulPartitionedCall/model_12/sequential_43/conv2d_transpose_31/strided_slice/stack_2:0">
					<dim>1</dim>
				</port>
			</output>
		</layer>
		<layer id="155" name="StatefulPartitionedCall/model_12/sequential_43/conv2d_transpose_31/strided_slice" type="StridedSlice" version="opset1">
			<data begin_mask="0" end_mask="0" new_axis_mask="0" shrink_axis_mask="1" ellipsis_mask="0"/>
			<rt_info>
				<attribute name="fused_names" version="0" value="StatefulPartitionedCall/model_12/sequential_43/conv2d_transpose_31/strided_slice, StatefulPartitionedCall/model_12/sequential_43/conv2d_transpose_31/strided_slice/stack, StatefulPartitionedCall/model_12/sequential_43/conv2d_transpose_31/strided_slice/stack_1, StatefulPartitionedCall/model_12/sequential_43/conv2d_transpose_31/strided_slice/stack_2"/>
			</rt_info>
			<input>
				<port id="0" precision="I32">
					<dim>4</dim>
				</port>
				<port id="1" precision="I64">
					<dim>1</dim>
				</port>
				<port id="2" precision="I64">
					<dim>1</dim>
				</port>
				<port id="3" precision="I64">
					<dim>1</dim>
				</port>
			</input>
			<output>
				<port id="4" precision="I32" names="StatefulPartitionedCall/model_12/sequential_43/conv2d_transpose_31/strided_slice:0"/>
			</output>
		</layer>
		<layer id="156" name="StatefulPartitionedCall/model_12/sequential_43/conv2d_transpose_31/stack/Unsqueeze_input_port_1/value" type="Const" version="opset1">
			<data element_type="i64" shape="1" offset="4860364" size="8"/>
			<rt_info>
				<attribute name="fused_names" version="0" value="StatefulPartitionedCall/model_12/sequential_43/conv2d_transpose_31/stack/Unsqueeze_input_port_1/value"/>
			</rt_info>
			<output>
				<port id="0" precision="I64">
					<dim>1</dim>
				</port>
			</output>
		</layer>
		<layer id="157" name="StatefulPartitionedCall/model_12/sequential_43/conv2d_transpose_31/stack/Unsqueeze" type="Unsqueeze" version="opset1">
			<rt_info>
				<attribute name="fused_names" version="0" value="StatefulPartitionedCall/model_12/sequential_43/conv2d_transpose_31/stack/Unsqueeze, StatefulPartitionedCall/model_12/sequential_43/conv2d_transpose_31/stack/Unsqueeze_input_port_1/value"/>
			</rt_info>
			<input>
				<port id="0" precision="I32"/>
				<port id="1" precision="I64">
					<dim>1</dim>
				</port>
			</input>
			<output>
				<port id="2" precision="I32">
					<dim>1</dim>
				</port>
			</output>
		</layer>
		<layer id="158" name="StatefulPartitionedCall/model_12/sequential_43/conv2d_transpose_31/stack/Unsqueeze326" type="Const" version="opset1">
			<data element_type="i32" shape="1" offset="5909512" size="4"/>
			<rt_info>
				<attribute name="fused_names" version="0" value="StatefulPartitionedCall/model_12/sequential_43/conv2d_transpose_31/stack/Unsqueeze326"/>
			</rt_info>
			<output>
				<port id="0" precision="I32">
					<dim>1</dim>
				</port>
			</output>
		</layer>
		<layer id="159" name="StatefulPartitionedCall/model_12/sequential_43/conv2d_transpose_31/stack/Unsqueeze328" type="Const" version="opset1">
			<data element_type="i32" shape="1" offset="5909512" size="4"/>
			<rt_info>
				<attribute name="fused_names" version="0" value="StatefulPartitionedCall/model_12/sequential_43/conv2d_transpose_31/stack/Unsqueeze328"/>
			</rt_info>
			<output>
				<port id="0" precision="I32">
					<dim>1</dim>
				</port>
			</output>
		</layer>
		<layer id="160" name="StatefulPartitionedCall/model_12/sequential_43/conv2d_transpose_31/stack/Unsqueeze330" type="Const" version="opset1">
			<data element_type="i32" shape="1" offset="5909508" size="4"/>
			<rt_info>
				<attribute name="fused_names" version="0" value="StatefulPartitionedCall/model_12/sequential_43/conv2d_transpose_31/stack/Unsqueeze330"/>
			</rt_info>
			<output>
				<port id="0" precision="I32">
					<dim>1</dim>
				</port>
			</output>
		</layer>
		<layer id="161" name="StatefulPartitionedCall/model_12/sequential_43/conv2d_transpose_31/stack" type="Concat" version="opset1">
			<data axis="0"/>
			<rt_info>
				<attribute name="fused_names" version="0" value="StatefulPartitionedCall/model_12/sequential_43/conv2d_transpose_31/stack, StatefulPartitionedCall/model_12/sequential_43/conv2d_transpose_31/stack/Unsqueeze326, StatefulPartitionedCall/model_12/sequential_43/conv2d_transpose_31/stack/Unsqueeze328, StatefulPartitionedCall/model_12/sequential_43/conv2d_transpose_31/stack/Unsqueeze330"/>
			</rt_info>
			<input>
				<port id="0" precision="I32">
					<dim>1</dim>
				</port>
				<port id="1" precision="I32">
					<dim>1</dim>
				</port>
				<port id="2" precision="I32">
					<dim>1</dim>
				</port>
				<port id="3" precision="I32">
					<dim>1</dim>
				</port>
			</input>
			<output>
				<port id="4" precision="I32">
					<dim>4</dim>
				</port>
			</output>
		</layer>
		<layer id="162" name="StatefulPartitionedCall/model_12/sequential_43/conv2d_transpose_31/conv2d_transpose/GatherNHWCtoNCHW_input_port_1/value39317010" type="Const" version="opset1">
			<data element_type="i32" shape="4" offset="4860388" size="16"/>
			<rt_info>
				<attribute name="fused_names" version="0" value="StatefulPartitionedCall/model_12/sequential_43/conv2d_transpose_31/conv2d_transpose/GatherNHWCtoNCHW_input_port_1/value39317010"/>
			</rt_info>
			<output>
				<port id="0" precision="I32">
					<dim>4</dim>
				</port>
			</output>
		</layer>
		<layer id="163" name="StatefulPartitionedCall/model_12/sequential_43/conv2d_transpose_31/conv2d_transpose/GatherNHWCtoNCHW_input_port_2/value39336974" type="Const" version="opset1">
			<data element_type="i64" shape="" offset="4860364" size="8"/>
			<rt_info>
				<attribute name="fused_names" version="0" value="StatefulPartitionedCall/model_12/sequential_43/conv2d_transpose_31/conv2d_transpose/GatherNHWCtoNCHW_input_port_2/value39336974"/>
			</rt_info>
			<output>
				<port id="0" precision="I64"/>
			</output>
		</layer>
		<layer id="164" name="StatefulPartitionedCall/model_12/sequential_43/conv2d_transpose_31/conv2d_transpose/GatherNHWCtoNCHW" type="Gather" version="opset8">
			<data batch_dims="0"/>
			<rt_info>
				<attribute name="fused_names" version="0" value="StatefulPartitionedCall/model_12/sequential_43/conv2d_transpose_31/conv2d_transpose/GatherNHWCtoNCHW, StatefulPartitionedCall/model_12/sequential_43/conv2d_transpose_31/conv2d_transpose/GatherNHWCtoNCHW_input_port_1/value39317010, StatefulPartitionedCall/model_12/sequential_43/conv2d_transpose_31/conv2d_transpose/GatherNHWCtoNCHW_input_port_2/value39336974"/>
			</rt_info>
			<input>
				<port id="0" precision="I32">
					<dim>4</dim>
				</port>
				<port id="1" precision="I32">
					<dim>4</dim>
				</port>
				<port id="2" precision="I64"/>
			</input>
			<output>
				<port id="3" precision="I32">
					<dim>4</dim>
				</port>
			</output>
		</layer>
		<layer id="165" name="StatefulPartitionedCall/model_12/sequential_43/conv2d_transpose_31/conv2d_transpose/ss_0_port_input_port_1/value61807154" type="Const" version="opset1">
			<data element_type="i64" shape="1" offset="4860404" size="8"/>
			<rt_info>
				<attribute name="fused_names" version="0" value="StatefulPartitionedCall/model_12/sequential_43/conv2d_transpose_31/conv2d_transpose/ss_0_port_input_port_1/value61807154"/>
			</rt_info>
			<output>
				<port id="0" precision="I64">
					<dim>1</dim>
				</port>
			</output>
		</layer>
		<layer id="166" name="StatefulPartitionedCall/model_12/sequential_43/conv2d_transpose_31/conv2d_transpose/ss_0_port_input_port_2/value61827076" type="Const" version="opset1">
			<data element_type="i64" shape="1" offset="4860412" size="8"/>
			<rt_info>
				<attribute name="fused_names" version="0" value="StatefulPartitionedCall/model_12/sequential_43/conv2d_transpose_31/conv2d_transpose/ss_0_port_input_port_2/value61827076"/>
			</rt_info>
			<output>
				<port id="0" precision="I64">
					<dim>1</dim>
				</port>
			</output>
		</layer>
		<layer id="167" name="StatefulPartitionedCall/model_12/sequential_43/conv2d_transpose_31/conv2d_transpose/ss_0_port_input_port_3/value61847196" type="Const" version="opset1">
			<data element_type="i64" shape="1" offset="4860372" size="8"/>
			<rt_info>
				<attribute name="fused_names" version="0" value="StatefulPartitionedCall/model_12/sequential_43/conv2d_transpose_31/conv2d_transpose/ss_0_port_input_port_3/value61847196"/>
			</rt_info>
			<output>
				<port id="0" precision="I64">
					<dim>1</dim>
				</port>
			</output>
		</layer>
		<layer id="168" name="StatefulPartitionedCall/model_12/sequential_43/conv2d_transpose_31/conv2d_transpose/ss_0_port" type="StridedSlice" version="opset1">
			<data begin_mask="0" end_mask="1" new_axis_mask="0" shrink_axis_mask="0" ellipsis_mask="0"/>
			<rt_info>
				<attribute name="fused_names" version="0" value="StatefulPartitionedCall/model_12/sequential_43/conv2d_transpose_31/conv2d_transpose/ss_0_port, StatefulPartitionedCall/model_12/sequential_43/conv2d_transpose_31/conv2d_transpose/ss_0_port_input_port_1/value61807154, StatefulPartitionedCall/model_12/sequential_43/conv2d_transpose_31/conv2d_transpose/ss_0_port_input_port_2/value61827076, StatefulPartitionedCall/model_12/sequential_43/conv2d_transpose_31/conv2d_transpose/ss_0_port_input_port_3/value61847196"/>
			</rt_info>
			<input>
				<port id="0" precision="I32">
					<dim>4</dim>
				</port>
				<port id="1" precision="I64">
					<dim>1</dim>
				</port>
				<port id="2" precision="I64">
					<dim>1</dim>
				</port>
				<port id="3" precision="I64">
					<dim>1</dim>
				</port>
			</input>
			<output>
				<port id="4" precision="I32">
					<dim>2</dim>
				</port>
			</output>
		</layer>
		<layer id="169" name="StatefulPartitionedCall/model_12/sequential_43/conv2d_transpose_31/conv2d_transpose/Cast_2" type="Convert" version="opset1">
			<data destination_type="i64"/>
			<rt_info>
				<attribute name="fused_names" version="0" value="StatefulPartitionedCall/model_12/sequential_43/conv2d_transpose_31/conv2d_transpose/Cast_2"/>
			</rt_info>
			<input>
				<port id="0" precision="I32">
					<dim>2</dim>
				</port>
			</input>
			<output>
				<port id="1" precision="I64">
					<dim>2</dim>
				</port>
			</output>
		</layer>
		<layer id="170" name="StatefulPartitionedCall/model_12/sequential_43/conv2d_transpose_31/conv2d_transpose" type="ConvolutionBackpropData" version="opset1">
			<data strides="2, 2" dilations="1, 1" pads_begin="0, 0" pads_end="0, 0" auto_pad="same_lower" output_padding="0, 0"/>
			<rt_info>
				<attribute name="fused_names" version="0" value="StatefulPartitionedCall/model_12/sequential_43/conv2d_transpose_31/conv2d_transpose"/>
			</rt_info>
			<input>
				<port id="0" precision="FP32">
					<dim>-1</dim>
					<dim>128</dim>
					<dim>32</dim>
					<dim>32</dim>
				</port>
				<port id="1" precision="FP32">
					<dim>128</dim>
					<dim>32</dim>
					<dim>4</dim>
					<dim>4</dim>
				</port>
				<port id="2" precision="I64">
					<dim>2</dim>
				</port>
			</input>
			<output>
				<port id="3" precision="FP32" names="Func/StatefulPartitionedCall/model_12/sequential_43/instance_normalization_27/StatefulPartitionedCall/StatefulPartitionedCall/input/_91:0,Func/StatefulPartitionedCall/model_12/sequential_43/instance_normalization_27/StatefulPartitionedCall/input/_55:0,StatefulPartitionedCall/model_12/sequential_43/conv2d_transpose_31/conv2d_transpose:0">
					<dim>-1</dim>
					<dim>32</dim>
					<dim>64</dim>
					<dim>64</dim>
				</port>
			</output>
		</layer>
		<layer id="171" name="41437139" type="Const" version="opset1">
			<data element_type="i64" shape="2" offset="139940" size="16"/>
			<rt_info>
				<attribute name="fused_names" version="0" value="41437139"/>
			</rt_info>
			<output>
				<port id="0" precision="I64">
					<dim>2</dim>
				</port>
			</output>
		</layer>
		<layer id="172" name="StatefulPartitionedCall/model_12/sequential_43/instance_normalization_27/StatefulPartitionedCall/StatefulPartitionedCall/moments/mean" type="ReduceMean" version="opset1">
			<data keep_dims="true"/>
			<rt_info>
				<attribute name="fused_names" version="0" value="StatefulPartitionedCall/model_12/sequential_43/instance_normalization_27/StatefulPartitionedCall/StatefulPartitionedCall/moments/mean"/>
			</rt_info>
			<input>
				<port id="0" precision="FP32">
					<dim>-1</dim>
					<dim>32</dim>
					<dim>64</dim>
					<dim>64</dim>
				</port>
				<port id="1" precision="I64">
					<dim>2</dim>
				</port>
			</input>
			<output>
				<port id="2" precision="FP32">
					<dim>-1</dim>
					<dim>32</dim>
					<dim>1</dim>
					<dim>1</dim>
				</port>
			</output>
		</layer>
		<layer id="173" name="StatefulPartitionedCall/model_12/sequential_43/instance_normalization_27/StatefulPartitionedCall/StatefulPartitionedCall/sub" type="Subtract" version="opset1">
			<data auto_broadcast="numpy"/>
			<rt_info>
				<attribute name="fused_names" version="0" value="StatefulPartitionedCall/model_12/sequential_43/instance_normalization_27/StatefulPartitionedCall/StatefulPartitionedCall/sub, StatefulPartitionedCall/model_12/sequential_43/instance_normalization_27/StatefulPartitionedCall/StatefulPartitionedCall/sub/neg_"/>
			</rt_info>
			<input>
				<port id="0" precision="FP32">
					<dim>-1</dim>
					<dim>32</dim>
					<dim>64</dim>
					<dim>64</dim>
				</port>
				<port id="1" precision="FP32">
					<dim>-1</dim>
					<dim>32</dim>
					<dim>1</dim>
					<dim>1</dim>
				</port>
			</input>
			<output>
				<port id="2" precision="FP32" names="StatefulPartitionedCall/model_12/sequential_43/instance_normalization_27/StatefulPartitionedCall/StatefulPartitionedCall/sub:0">
					<dim>-1</dim>
					<dim>32</dim>
					<dim>64</dim>
					<dim>64</dim>
				</port>
			</output>
		</layer>
		<layer id="174" name="StatefulPartitionedCall/model_12/sequential_43/instance_normalization_27/StatefulPartitionedCall/StatefulPartitionedCall/moments/SquaredDifference" type="SquaredDifference" version="opset1">
			<data auto_broadcast="numpy"/>
			<rt_info>
				<attribute name="fused_names" version="0" value="StatefulPartitionedCall/model_12/sequential_43/instance_normalization_27/StatefulPartitionedCall/StatefulPartitionedCall/moments/SquaredDifference"/>
			</rt_info>
			<input>
				<port id="0" precision="FP32">
					<dim>-1</dim>
					<dim>32</dim>
					<dim>64</dim>
					<dim>64</dim>
				</port>
				<port id="1" precision="FP32">
					<dim>-1</dim>
					<dim>32</dim>
					<dim>1</dim>
					<dim>1</dim>
				</port>
			</input>
			<output>
				<port id="2" precision="FP32" names="StatefulPartitionedCall/model_12/sequential_43/instance_normalization_27/StatefulPartitionedCall/StatefulPartitionedCall/moments/SquaredDifference:0">
					<dim>-1</dim>
					<dim>32</dim>
					<dim>64</dim>
					<dim>64</dim>
				</port>
			</output>
		</layer>
		<layer id="175" name="41497088" type="Const" version="opset1">
			<data element_type="i64" shape="2" offset="139940" size="16"/>
			<rt_info>
				<attribute name="fused_names" version="0" value="41497088"/>
			</rt_info>
			<output>
				<port id="0" precision="I64">
					<dim>2</dim>
				</port>
			</output>
		</layer>
		<layer id="176" name="StatefulPartitionedCall/model_12/sequential_43/instance_normalization_27/StatefulPartitionedCall/StatefulPartitionedCall/moments/variance" type="ReduceMean" version="opset1">
			<data keep_dims="true"/>
			<rt_info>
				<attribute name="fused_names" version="0" value="StatefulPartitionedCall/model_12/sequential_43/instance_normalization_27/StatefulPartitionedCall/StatefulPartitionedCall/moments/variance"/>
			</rt_info>
			<input>
				<port id="0" precision="FP32">
					<dim>-1</dim>
					<dim>32</dim>
					<dim>64</dim>
					<dim>64</dim>
				</port>
				<port id="1" precision="I64">
					<dim>2</dim>
				</port>
			</input>
			<output>
				<port id="2" precision="FP32" names="StatefulPartitionedCall/model_12/sequential_43/instance_normalization_27/StatefulPartitionedCall/StatefulPartitionedCall/moments/variance:0">
					<dim>-1</dim>
					<dim>32</dim>
					<dim>1</dim>
					<dim>1</dim>
				</port>
			</output>
		</layer>
		<layer id="177" name="StatefulPartitionedCall/model_12/sequential_43/instance_normalization_27/StatefulPartitionedCall/StatefulPartitionedCall/add/y" type="Const" version="opset1">
			<data element_type="f32" shape="1, 1, 1, 1" offset="139956" size="4"/>
			<rt_info>
				<attribute name="fused_names" version="0" value="StatefulPartitionedCall/model_12/sequential_43/instance_normalization_27/StatefulPartitionedCall/StatefulPartitionedCall/add/y"/>
			</rt_info>
			<output>
				<port id="0" precision="FP32" names="StatefulPartitionedCall/model_12/sequential_43/instance_normalization_27/StatefulPartitionedCall/StatefulPartitionedCall/add/y:0">
					<dim>1</dim>
					<dim>1</dim>
					<dim>1</dim>
					<dim>1</dim>
				</port>
			</output>
		</layer>
		<layer id="178" name="StatefulPartitionedCall/model_12/sequential_43/instance_normalization_27/StatefulPartitionedCall/StatefulPartitionedCall/add" type="Add" version="opset1">
			<data auto_broadcast="numpy"/>
			<rt_info>
				<attribute name="fused_names" version="0" value="StatefulPartitionedCall/model_12/sequential_43/instance_normalization_27/StatefulPartitionedCall/StatefulPartitionedCall/add"/>
			</rt_info>
			<input>
				<port id="0" precision="FP32">
					<dim>-1</dim>
					<dim>32</dim>
					<dim>1</dim>
					<dim>1</dim>
				</port>
				<port id="1" precision="FP32">
					<dim>1</dim>
					<dim>1</dim>
					<dim>1</dim>
					<dim>1</dim>
				</port>
			</input>
			<output>
				<port id="2" precision="FP32" names="StatefulPartitionedCall/model_12/sequential_43/instance_normalization_27/StatefulPartitionedCall/StatefulPartitionedCall/add:0">
					<dim>-1</dim>
					<dim>32</dim>
					<dim>1</dim>
					<dim>1</dim>
				</port>
			</output>
		</layer>
		<layer id="179" name="302" type="Const" version="opset1">
			<data element_type="f32" shape="1, 1, 1, 1" offset="139960" size="4"/>
			<rt_info>
				<attribute name="fused_names" version="0" value="302"/>
			</rt_info>
			<output>
				<port id="0" precision="FP32">
					<dim>1</dim>
					<dim>1</dim>
					<dim>1</dim>
					<dim>1</dim>
				</port>
			</output>
		</layer>
		<layer id="180" name="StatefulPartitionedCall/model_12/sequential_43/instance_normalization_27/StatefulPartitionedCall/StatefulPartitionedCall/Rsqrt/pow_" type="Power" version="opset1">
			<data auto_broadcast="numpy"/>
			<rt_info>
				<attribute name="fused_names" version="0" value="StatefulPartitionedCall/model_12/sequential_43/instance_normalization_27/StatefulPartitionedCall/StatefulPartitionedCall/Rsqrt/pow_"/>
			</rt_info>
			<input>
				<port id="0" precision="FP32">
					<dim>-1</dim>
					<dim>32</dim>
					<dim>1</dim>
					<dim>1</dim>
				</port>
				<port id="1" precision="FP32">
					<dim>1</dim>
					<dim>1</dim>
					<dim>1</dim>
					<dim>1</dim>
				</port>
			</input>
			<output>
				<port id="2" precision="FP32" names="StatefulPartitionedCall/model_12/sequential_43/instance_normalization_27/StatefulPartitionedCall/StatefulPartitionedCall/Rsqrt:0">
					<dim>-1</dim>
					<dim>32</dim>
					<dim>1</dim>
					<dim>1</dim>
				</port>
			</output>
		</layer>
		<layer id="181" name="StatefulPartitionedCall/model_12/sequential_43/instance_normalization_27/StatefulPartitionedCall/StatefulPartitionedCall/mul" type="Multiply" version="opset1">
			<data auto_broadcast="numpy"/>
			<rt_info>
				<attribute name="fused_names" version="0" value="StatefulPartitionedCall/model_12/sequential_43/instance_normalization_27/StatefulPartitionedCall/StatefulPartitionedCall/mul"/>
			</rt_info>
			<input>
				<port id="0" precision="FP32">
					<dim>-1</dim>
					<dim>32</dim>
					<dim>64</dim>
					<dim>64</dim>
				</port>
				<port id="1" precision="FP32">
					<dim>-1</dim>
					<dim>32</dim>
					<dim>1</dim>
					<dim>1</dim>
				</port>
			</input>
			<output>
				<port id="2" precision="FP32" names="StatefulPartitionedCall/model_12/sequential_43/instance_normalization_27/StatefulPartitionedCall/StatefulPartitionedCall/mul:0">
					<dim>-1</dim>
					<dim>32</dim>
					<dim>64</dim>
					<dim>64</dim>
				</port>
			</output>
		</layer>
		<layer id="182" name="StatefulPartitionedCall/model_12/sequential_43/instance_normalization_27/StatefulPartitionedCall/StatefulPartitionedCall/mul_1" type="Multiply" version="opset1">
			<data auto_broadcast="numpy"/>
			<rt_info>
				<attribute name="fused_names" version="0" value="StatefulPartitionedCall/model_12/sequential_43/instance_normalization_27/StatefulPartitionedCall/StatefulPartitionedCall/mul_1"/>
			</rt_info>
			<input>
				<port id="0" precision="FP32">
					<dim>1</dim>
					<dim>32</dim>
					<dim>1</dim>
					<dim>1</dim>
				</port>
				<port id="1" precision="FP32">
					<dim>-1</dim>
					<dim>32</dim>
					<dim>64</dim>
					<dim>64</dim>
				</port>
			</input>
			<output>
				<port id="2" precision="FP32" names="StatefulPartitionedCall/model_12/sequential_43/instance_normalization_27/StatefulPartitionedCall/StatefulPartitionedCall/mul_1:0">
					<dim>-1</dim>
					<dim>32</dim>
					<dim>64</dim>
					<dim>64</dim>
				</port>
			</output>
		</layer>
		<layer id="183" name="StatefulPartitionedCall/model_12/sequential_43/instance_normalization_27/StatefulPartitionedCall/StatefulPartitionedCall/add_1/ReadVariableOp" type="Const" version="opset1">
			<data element_type="f32" shape="1, 32, 1, 1" offset="6171916" size="128"/>
			<rt_info>
				<attribute name="fused_names" version="0" value="StatefulPartitionedCall/model_12/sequential_43/instance_normalization_27/StatefulPartitionedCall/StatefulPartitionedCall/add_1/ReadVariableOp"/>
			</rt_info>
			<output>
				<port id="0" precision="FP32" names="StatefulPartitionedCall/model_12/sequential_43/instance_normalization_27/StatefulPartitionedCall/StatefulPartitionedCall/add_1/ReadVariableOp:0">
					<dim>1</dim>
					<dim>32</dim>
					<dim>1</dim>
					<dim>1</dim>
				</port>
			</output>
		</layer>
		<layer id="184" name="StatefulPartitionedCall/model_12/sequential_43/instance_normalization_27/StatefulPartitionedCall/StatefulPartitionedCall/add_1" type="Add" version="opset1">
			<data auto_broadcast="numpy"/>
			<rt_info>
				<attribute name="fused_names" version="0" value="StatefulPartitionedCall/model_12/sequential_43/instance_normalization_27/StatefulPartitionedCall/StatefulPartitionedCall/add_1"/>
			</rt_info>
			<input>
				<port id="0" precision="FP32">
					<dim>-1</dim>
					<dim>32</dim>
					<dim>64</dim>
					<dim>64</dim>
				</port>
				<port id="1" precision="FP32">
					<dim>1</dim>
					<dim>32</dim>
					<dim>1</dim>
					<dim>1</dim>
				</port>
			</input>
			<output>
				<port id="2" precision="FP32" names="Func/StatefulPartitionedCall/model_12/sequential_43/instance_normalization_27/StatefulPartitionedCall/StatefulPartitionedCall/output/_94:0,Func/StatefulPartitionedCall/model_12/sequential_43/instance_normalization_27/StatefulPartitionedCall/output/_58:0,StatefulPartitionedCall/model_12/sequential_43/instance_normalization_27/StatefulPartitionedCall/Identity:0,StatefulPartitionedCall/model_12/sequential_43/instance_normalization_27/StatefulPartitionedCall/StatefulPartitionedCall/Identity:0,StatefulPartitionedCall/model_12/sequential_43/instance_normalization_27/StatefulPartitionedCall/StatefulPartitionedCall/add_1:0">
					<dim>-1</dim>
					<dim>32</dim>
					<dim>64</dim>
					<dim>64</dim>
				</port>
			</output>
		</layer>
		<layer id="185" name="StatefulPartitionedCall/model_12/sequential_43/re_lu_23/Relu" type="ReLU" version="opset1">
			<rt_info>
				<attribute name="fused_names" version="0" value="StatefulPartitionedCall/model_12/sequential_43/re_lu_23/Relu"/>
			</rt_info>
			<input>
				<port id="0" precision="FP32">
					<dim>-1</dim>
					<dim>32</dim>
					<dim>64</dim>
					<dim>64</dim>
				</port>
			</input>
			<output>
				<port id="1" precision="FP32" names="StatefulPartitionedCall/model_12/sequential_43/re_lu_23/Relu:0">
					<dim>-1</dim>
					<dim>32</dim>
					<dim>64</dim>
					<dim>64</dim>
				</port>
			</output>
		</layer>
		<layer id="186" name="StatefulPartitionedCall/model_12/concatenate_13/concat_2" type="Concat" version="opset1">
			<data axis="1"/>
			<rt_info>
				<attribute name="fused_names" version="0" value="StatefulPartitionedCall/model_12/concatenate_13/concat_2"/>
			</rt_info>
			<input>
				<port id="0" precision="FP32">
					<dim>-1</dim>
					<dim>32</dim>
					<dim>64</dim>
					<dim>64</dim>
				</port>
				<port id="1" precision="FP32">
					<dim>-1</dim>
					<dim>32</dim>
					<dim>64</dim>
					<dim>64</dim>
				</port>
			</input>
			<output>
				<port id="2" precision="FP32" names="StatefulPartitionedCall/model_12/concatenate_13/concat_2:0">
					<dim>-1</dim>
					<dim>64</dim>
					<dim>64</dim>
					<dim>64</dim>
				</port>
			</output>
		</layer>
		<layer id="187" name="StatefulPartitionedCall/model_12/conv2d_transpose_32/conv2d_transpose/ReadVariableOp" type="Const" version="opset1">
			<data element_type="f32" shape="64, 1, 4, 4" offset="6172044" size="4096"/>
			<rt_info>
				<attribute name="fused_names" version="0" value="StatefulPartitionedCall/model_12/conv2d_transpose_32/conv2d_transpose/ReadVariableOp"/>
			</rt_info>
			<output>
				<port id="0" precision="FP32" names="StatefulPartitionedCall/model_12/conv2d_transpose_32/conv2d_transpose/ReadVariableOp:0">
					<dim>64</dim>
					<dim>1</dim>
					<dim>4</dim>
					<dim>4</dim>
				</port>
			</output>
		</layer>
		<layer id="188" name="StatefulPartitionedCall/model_12/conv2d_transpose_32/Shape" type="ShapeOf" version="opset3">
			<data output_type="i32"/>
			<rt_info>
				<attribute name="fused_names" version="0" value="StatefulPartitionedCall/model_12/conv2d_transpose_32/Shape"/>
			</rt_info>
			<input>
				<port id="0" precision="FP32">
					<dim>-1</dim>
					<dim>64</dim>
					<dim>64</dim>
					<dim>64</dim>
				</port>
			</input>
			<output>
				<port id="1" precision="I32">
					<dim>4</dim>
				</port>
			</output>
		</layer>
		<layer id="189" name="StatefulPartitionedCall/model_12/conv2d_transpose_32/Shape/GatherNCHWtoNHWC_input_port_1/value39197148" type="Const" version="opset1">
			<data element_type="i32" shape="4" offset="4860348" size="16"/>
			<rt_info>
				<attribute name="fused_names" version="0" value="StatefulPartitionedCall/model_12/conv2d_transpose_32/Shape/GatherNCHWtoNHWC_input_port_1/value39197148"/>
			</rt_info>
			<output>
				<port id="0" precision="I32">
					<dim>4</dim>
				</port>
			</output>
		</layer>
		<layer id="190" name="StatefulPartitionedCall/model_12/conv2d_transpose_32/Shape/GatherNCHWtoNHWC_input_port_2/value39216920" type="Const" version="opset1">
			<data element_type="i64" shape="" offset="4860364" size="8"/>
			<rt_info>
				<attribute name="fused_names" version="0" value="StatefulPartitionedCall/model_12/conv2d_transpose_32/Shape/GatherNCHWtoNHWC_input_port_2/value39216920"/>
			</rt_info>
			<output>
				<port id="0" precision="I64"/>
			</output>
		</layer>
		<layer id="191" name="StatefulPartitionedCall/model_12/conv2d_transpose_32/Shape/GatherNCHWtoNHWC" type="Gather" version="opset8">
			<data batch_dims="0"/>
			<rt_info>
				<attribute name="fused_names" version="0" value="StatefulPartitionedCall/model_12/conv2d_transpose_32/Shape/GatherNCHWtoNHWC, StatefulPartitionedCall/model_12/conv2d_transpose_32/Shape/GatherNCHWtoNHWC_input_port_1/value39197148, StatefulPartitionedCall/model_12/conv2d_transpose_32/Shape/GatherNCHWtoNHWC_input_port_2/value39216920"/>
			</rt_info>
			<input>
				<port id="0" precision="I32">
					<dim>4</dim>
				</port>
				<port id="1" precision="I32">
					<dim>4</dim>
				</port>
				<port id="2" precision="I64"/>
			</input>
			<output>
				<port id="3" precision="I32" names="StatefulPartitionedCall/model_12/conv2d_transpose_32/Shape:0">
					<dim>4</dim>
				</port>
			</output>
		</layer>
		<layer id="192" name="StatefulPartitionedCall/model_12/conv2d_transpose_32/strided_slice/stack" type="Const" version="opset1">
			<data element_type="i64" shape="1" offset="4860364" size="8"/>
			<rt_info>
				<attribute name="fused_names" version="0" value="StatefulPartitionedCall/model_12/conv2d_transpose_32/strided_slice/stack"/>
			</rt_info>
			<output>
				<port id="0" precision="I64" names="StatefulPartitionedCall/model_12/conv2d_transpose_32/strided_slice/stack:0">
					<dim>1</dim>
				</port>
			</output>
		</layer>
		<layer id="193" name="StatefulPartitionedCall/model_12/conv2d_transpose_32/strided_slice/stack_1" type="Const" version="opset1">
			<data element_type="i64" shape="1" offset="4860372" size="8"/>
			<rt_info>
				<attribute name="fused_names" version="0" value="StatefulPartitionedCall/model_12/conv2d_transpose_32/strided_slice/stack_1"/>
			</rt_info>
			<output>
				<port id="0" precision="I64" names="StatefulPartitionedCall/model_12/conv2d_transpose_32/strided_slice/stack_1:0">
					<dim>1</dim>
				</port>
			</output>
		</layer>
		<layer id="194" name="StatefulPartitionedCall/model_12/conv2d_transpose_32/strided_slice/stack_2" type="Const" version="opset1">
			<data element_type="i64" shape="1" offset="4860372" size="8"/>
			<rt_info>
				<attribute name="fused_names" version="0" value="StatefulPartitionedCall/model_12/conv2d_transpose_32/strided_slice/stack_2"/>
			</rt_info>
			<output>
				<port id="0" precision="I64" names="StatefulPartitionedCall/model_12/conv2d_transpose_32/strided_slice/stack_2:0">
					<dim>1</dim>
				</port>
			</output>
		</layer>
		<layer id="195" name="StatefulPartitionedCall/model_12/conv2d_transpose_32/strided_slice" type="StridedSlice" version="opset1">
			<data begin_mask="0" end_mask="0" new_axis_mask="0" shrink_axis_mask="1" ellipsis_mask="0"/>
			<rt_info>
				<attribute name="fused_names" version="0" value="StatefulPartitionedCall/model_12/conv2d_transpose_32/strided_slice, StatefulPartitionedCall/model_12/conv2d_transpose_32/strided_slice/stack, StatefulPartitionedCall/model_12/conv2d_transpose_32/strided_slice/stack_1, StatefulPartitionedCall/model_12/conv2d_transpose_32/strided_slice/stack_2"/>
			</rt_info>
			<input>
				<port id="0" precision="I32">
					<dim>4</dim>
				</port>
				<port id="1" precision="I64">
					<dim>1</dim>
				</port>
				<port id="2" precision="I64">
					<dim>1</dim>
				</port>
				<port id="3" precision="I64">
					<dim>1</dim>
				</port>
			</input>
			<output>
				<port id="4" precision="I32" names="StatefulPartitionedCall/model_12/conv2d_transpose_32/strided_slice:0"/>
			</output>
		</layer>
		<layer id="196" name="StatefulPartitionedCall/model_12/conv2d_transpose_32/stack/Unsqueeze_input_port_1/value" type="Const" version="opset1">
			<data element_type="i64" shape="1" offset="4860364" size="8"/>
			<rt_info>
				<attribute name="fused_names" version="0" value="StatefulPartitionedCall/model_12/conv2d_transpose_32/stack/Unsqueeze_input_port_1/value"/>
			</rt_info>
			<output>
				<port id="0" precision="I64">
					<dim>1</dim>
				</port>
			</output>
		</layer>
		<layer id="197" name="StatefulPartitionedCall/model_12/conv2d_transpose_32/stack/Unsqueeze" type="Unsqueeze" version="opset1">
			<rt_info>
				<attribute name="fused_names" version="0" value="StatefulPartitionedCall/model_12/conv2d_transpose_32/stack/Unsqueeze, StatefulPartitionedCall/model_12/conv2d_transpose_32/stack/Unsqueeze_input_port_1/value"/>
			</rt_info>
			<input>
				<port id="0" precision="I32"/>
				<port id="1" precision="I64">
					<dim>1</dim>
				</port>
			</input>
			<output>
				<port id="2" precision="I32">
					<dim>1</dim>
				</port>
			</output>
		</layer>
		<layer id="198" name="StatefulPartitionedCall/model_12/conv2d_transpose_32/stack/Unsqueeze317" type="Const" version="opset1">
			<data element_type="i32" shape="1" offset="4860384" size="4"/>
			<rt_info>
				<attribute name="fused_names" version="0" value="StatefulPartitionedCall/model_12/conv2d_transpose_32/stack/Unsqueeze317"/>
			</rt_info>
			<output>
				<port id="0" precision="I32">
					<dim>1</dim>
				</port>
			</output>
		</layer>
		<layer id="199" name="StatefulPartitionedCall/model_12/conv2d_transpose_32/stack/Unsqueeze319" type="Const" version="opset1">
			<data element_type="i32" shape="1" offset="4860384" size="4"/>
			<rt_info>
				<attribute name="fused_names" version="0" value="StatefulPartitionedCall/model_12/conv2d_transpose_32/stack/Unsqueeze319"/>
			</rt_info>
			<output>
				<port id="0" precision="I32">
					<dim>1</dim>
				</port>
			</output>
		</layer>
		<layer id="200" name="StatefulPartitionedCall/model_12/conv2d_transpose_32/stack/Unsqueeze321" type="Const" version="opset1">
			<data element_type="i32" shape="1" offset="6176140" size="4"/>
			<rt_info>
				<attribute name="fused_names" version="0" value="StatefulPartitionedCall/model_12/conv2d_transpose_32/stack/Unsqueeze321"/>
			</rt_info>
			<output>
				<port id="0" precision="I32">
					<dim>1</dim>
				</port>
			</output>
		</layer>
		<layer id="201" name="StatefulPartitionedCall/model_12/conv2d_transpose_32/stack" type="Concat" version="opset1">
			<data axis="0"/>
			<rt_info>
				<attribute name="fused_names" version="0" value="StatefulPartitionedCall/model_12/conv2d_transpose_32/stack, StatefulPartitionedCall/model_12/conv2d_transpose_32/stack/Unsqueeze317, StatefulPartitionedCall/model_12/conv2d_transpose_32/stack/Unsqueeze319, StatefulPartitionedCall/model_12/conv2d_transpose_32/stack/Unsqueeze321"/>
			</rt_info>
			<input>
				<port id="0" precision="I32">
					<dim>1</dim>
				</port>
				<port id="1" precision="I32">
					<dim>1</dim>
				</port>
				<port id="2" precision="I32">
					<dim>1</dim>
				</port>
				<port id="3" precision="I32">
					<dim>1</dim>
				</port>
			</input>
			<output>
				<port id="4" precision="I32">
					<dim>4</dim>
				</port>
			</output>
		</layer>
		<layer id="202" name="StatefulPartitionedCall/model_12/conv2d_transpose_32/conv2d_transpose/GatherNHWCtoNCHW_input_port_1/value39257004" type="Const" version="opset1">
			<data element_type="i32" shape="4" offset="4860388" size="16"/>
			<rt_info>
				<attribute name="fused_names" version="0" value="StatefulPartitionedCall/model_12/conv2d_transpose_32/conv2d_transpose/GatherNHWCtoNCHW_input_port_1/value39257004"/>
			</rt_info>
			<output>
				<port id="0" precision="I32">
					<dim>4</dim>
				</port>
			</output>
		</layer>
		<layer id="203" name="StatefulPartitionedCall/model_12/conv2d_transpose_32/conv2d_transpose/GatherNHWCtoNCHW_input_port_2/value39276899" type="Const" version="opset1">
			<data element_type="i64" shape="" offset="4860364" size="8"/>
			<rt_info>
				<attribute name="fused_names" version="0" value="StatefulPartitionedCall/model_12/conv2d_transpose_32/conv2d_transpose/GatherNHWCtoNCHW_input_port_2/value39276899"/>
			</rt_info>
			<output>
				<port id="0" precision="I64"/>
			</output>
		</layer>
		<layer id="204" name="StatefulPartitionedCall/model_12/conv2d_transpose_32/conv2d_transpose/GatherNHWCtoNCHW" type="Gather" version="opset8">
			<data batch_dims="0"/>
			<rt_info>
				<attribute name="fused_names" version="0" value="StatefulPartitionedCall/model_12/conv2d_transpose_32/conv2d_transpose/GatherNHWCtoNCHW, StatefulPartitionedCall/model_12/conv2d_transpose_32/conv2d_transpose/GatherNHWCtoNCHW_input_port_1/value39257004, StatefulPartitionedCall/model_12/conv2d_transpose_32/conv2d_transpose/GatherNHWCtoNCHW_input_port_2/value39276899"/>
			</rt_info>
			<input>
				<port id="0" precision="I32">
					<dim>4</dim>
				</port>
				<port id="1" precision="I32">
					<dim>4</dim>
				</port>
				<port id="2" precision="I64"/>
			</input>
			<output>
				<port id="3" precision="I32">
					<dim>4</dim>
				</port>
			</output>
		</layer>
		<layer id="205" name="StatefulPartitionedCall/model_12/conv2d_transpose_32/conv2d_transpose/ss_0_port_input_port_1/value62047235" type="Const" version="opset1">
			<data element_type="i64" shape="1" offset="4860404" size="8"/>
			<rt_info>
				<attribute name="fused_names" version="0" value="StatefulPartitionedCall/model_12/conv2d_transpose_32/conv2d_transpose/ss_0_port_input_port_1/value62047235"/>
			</rt_info>
			<output>
				<port id="0" precision="I64">
					<dim>1</dim>
				</port>
			</output>
		</layer>
		<layer id="206" name="StatefulPartitionedCall/model_12/conv2d_transpose_32/conv2d_transpose/ss_0_port_input_port_2/value62066938" type="Const" version="opset1">
			<data element_type="i64" shape="1" offset="4860412" size="8"/>
			<rt_info>
				<attribute name="fused_names" version="0" value="StatefulPartitionedCall/model_12/conv2d_transpose_32/conv2d_transpose/ss_0_port_input_port_2/value62066938"/>
			</rt_info>
			<output>
				<port id="0" precision="I64">
					<dim>1</dim>
				</port>
			</output>
		</layer>
		<layer id="207" name="StatefulPartitionedCall/model_12/conv2d_transpose_32/conv2d_transpose/ss_0_port_input_port_3/value62086911" type="Const" version="opset1">
			<data element_type="i64" shape="1" offset="4860372" size="8"/>
			<rt_info>
				<attribute name="fused_names" version="0" value="StatefulPartitionedCall/model_12/conv2d_transpose_32/conv2d_transpose/ss_0_port_input_port_3/value62086911"/>
			</rt_info>
			<output>
				<port id="0" precision="I64">
					<dim>1</dim>
				</port>
			</output>
		</layer>
		<layer id="208" name="StatefulPartitionedCall/model_12/conv2d_transpose_32/conv2d_transpose/ss_0_port" type="StridedSlice" version="opset1">
			<data begin_mask="0" end_mask="1" new_axis_mask="0" shrink_axis_mask="0" ellipsis_mask="0"/>
			<rt_info>
				<attribute name="fused_names" version="0" value="StatefulPartitionedCall/model_12/conv2d_transpose_32/conv2d_transpose/ss_0_port, StatefulPartitionedCall/model_12/conv2d_transpose_32/conv2d_transpose/ss_0_port_input_port_1/value62047235, StatefulPartitionedCall/model_12/conv2d_transpose_32/conv2d_transpose/ss_0_port_input_port_2/value62066938, StatefulPartitionedCall/model_12/conv2d_transpose_32/conv2d_transpose/ss_0_port_input_port_3/value62086911"/>
			</rt_info>
			<input>
				<port id="0" precision="I32">
					<dim>4</dim>
				</port>
				<port id="1" precision="I64">
					<dim>1</dim>
				</port>
				<port id="2" precision="I64">
					<dim>1</dim>
				</port>
				<port id="3" precision="I64">
					<dim>1</dim>
				</port>
			</input>
			<output>
				<port id="4" precision="I32">
					<dim>2</dim>
				</port>
			</output>
		</layer>
		<layer id="209" name="StatefulPartitionedCall/model_12/conv2d_transpose_32/conv2d_transpose/Cast_2" type="Convert" version="opset1">
			<data destination_type="i64"/>
			<rt_info>
				<attribute name="fused_names" version="0" value="StatefulPartitionedCall/model_12/conv2d_transpose_32/conv2d_transpose/Cast_2"/>
			</rt_info>
			<input>
				<port id="0" precision="I32">
					<dim>2</dim>
				</port>
			</input>
			<output>
				<port id="1" precision="I64">
					<dim>2</dim>
				</port>
			</output>
		</layer>
		<layer id="210" name="StatefulPartitionedCall/model_12/conv2d_transpose_32/conv2d_transpose" type="ConvolutionBackpropData" version="opset1">
			<data strides="2, 2" dilations="1, 1" pads_begin="0, 0" pads_end="0, 0" auto_pad="same_lower" output_padding="0, 0"/>
			<rt_info>
				<attribute name="fused_names" version="0" value="StatefulPartitionedCall/model_12/conv2d_transpose_32/conv2d_transpose"/>
			</rt_info>
			<input>
				<port id="0" precision="FP32">
					<dim>-1</dim>
					<dim>64</dim>
					<dim>64</dim>
					<dim>64</dim>
				</port>
				<port id="1" precision="FP32">
					<dim>64</dim>
					<dim>1</dim>
					<dim>4</dim>
					<dim>4</dim>
				</port>
				<port id="2" precision="I64">
					<dim>2</dim>
				</port>
			</input>
			<output>
				<port id="3" precision="FP32" names="StatefulPartitionedCall/model_12/conv2d_transpose_32/conv2d_transpose:0">
					<dim>-1</dim>
					<dim>1</dim>
					<dim>128</dim>
					<dim>128</dim>
				</port>
			</output>
		</layer>
		<layer id="211" name="StatefulPartitionedCall/model_12/conv2d_transpose_32/BiasAdd/ReadVariableOp" type="Const" version="opset1">
			<data element_type="f32" shape="1, 1, 1, 1" offset="6176144" size="4"/>
			<rt_info>
				<attribute name="fused_names" version="0" value="StatefulPartitionedCall/model_12/conv2d_transpose_32/BiasAdd/ReadVariableOp"/>
			</rt_info>
			<output>
				<port id="0" precision="FP32" names="StatefulPartitionedCall/model_12/conv2d_transpose_32/BiasAdd/ReadVariableOp:0">
					<dim>1</dim>
					<dim>1</dim>
					<dim>1</dim>
					<dim>1</dim>
				</port>
			</output>
		</layer>
		<layer id="212" name="StatefulPartitionedCall/model_12/conv2d_transpose_32/BiasAdd/Add" type="Add" version="opset1">
			<data auto_broadcast="numpy"/>
			<rt_info>
				<attribute name="fused_names" version="0" value="StatefulPartitionedCall/model_12/conv2d_transpose_32/BiasAdd/Add"/>
			</rt_info>
			<input>
				<port id="0" precision="FP32">
					<dim>-1</dim>
					<dim>1</dim>
					<dim>128</dim>
					<dim>128</dim>
				</port>
				<port id="1" precision="FP32">
					<dim>1</dim>
					<dim>1</dim>
					<dim>1</dim>
					<dim>1</dim>
				</port>
			</input>
			<output>
				<port id="2" precision="FP32" names="StatefulPartitionedCall/model_12/conv2d_transpose_32/BiasAdd:0">
					<dim>-1</dim>
					<dim>1</dim>
					<dim>128</dim>
					<dim>128</dim>
				</port>
			</output>
		</layer>
		<layer id="213" name="StatefulPartitionedCall/model_12/conv2d_transpose_32/Sigmoid/prev" type="Sigmoid" version="opset1">
			<rt_info>
				<attribute name="fused_names" version="0" value="StatefulPartitionedCall/model_12/conv2d_transpose_32/Sigmoid/prev"/>
			</rt_info>
			<input>
				<port id="0" precision="FP32">
					<dim>-1</dim>
					<dim>1</dim>
					<dim>128</dim>
					<dim>128</dim>
				</port>
			</input>
			<output>
				<port id="1" precision="FP32">
					<dim>-1</dim>
					<dim>1</dim>
					<dim>128</dim>
					<dim>128</dim>
				</port>
			</output>
		</layer>
		<layer id="214" name="Constant_2943" type="Const" version="opset1">
			<data element_type="i64" shape="4" offset="6176148" size="32"/>
			<output>
				<port id="0" precision="I64">
					<dim>4</dim>
				</port>
			</output>
		</layer>
		<layer id="215" name="StatefulPartitionedCall/model_12/conv2d_transpose_32/Sigmoid" type="Reshape" version="opset1">
			<data special_zero="true"/>
			<rt_info>
				<attribute name="fused_names" version="0" value="StatefulPartitionedCall/model_12/conv2d_transpose_32/Sigmoid"/>
			</rt_info>
			<input>
				<port id="0" precision="FP32">
					<dim>-1</dim>
					<dim>1</dim>
					<dim>128</dim>
					<dim>128</dim>
				</port>
				<port id="1" precision="I64">
					<dim>4</dim>
				</port>
			</input>
			<output>
				<port id="2" precision="FP32" names="Func/StatefulPartitionedCall/output/_22:0,Identity:0,StatefulPartitionedCall/Identity:0,StatefulPartitionedCall/model_12/conv2d_transpose_32/Sigmoid:0">
					<dim>-1</dim>
					<dim>128</dim>
					<dim>128</dim>
					<dim>1</dim>
				</port>
			</output>
		</layer>
		<layer id="216" name="Func/StatefulPartitionedCall/output/_22:0" type="Result" version="opset1">
			<rt_info>
				<attribute name="fused_names" version="0" value="Func/StatefulPartitionedCall/output/_22:0"/>
				<attribute name="old_api_map_order" version="0" value="0, 3, 1, 2"/>
			</rt_info>
			<input>
				<port id="0" precision="FP32">
					<dim>-1</dim>
					<dim>128</dim>
					<dim>128</dim>
					<dim>1</dim>
				</port>
			</input>
		</layer>
	</layers>
	<edges>
		<edge from-layer="0" from-port="0" to-layer="8" to-port="0"/>
		<edge from-layer="1" from-port="0" to-layer="182" to-port="0"/>
		<edge from-layer="2" from-port="0" to-layer="142" to-port="0"/>
		<edge from-layer="3" from-port="0" to-layer="102" to-port="0"/>
		<edge from-layer="4" from-port="0" to-layer="62" to-port="0"/>
		<edge from-layer="5" from-port="0" to-layer="44" to-port="0"/>
		<edge from-layer="6" from-port="0" to-layer="26" to-port="0"/>
		<edge from-layer="7" from-port="0" to-layer="8" to-port="1"/>
		<edge from-layer="8" from-port="2" to-layer="10" to-port="0"/>
		<edge from-layer="9" from-port="0" to-layer="10" to-port="1"/>
		<edge from-layer="10" from-port="2" to-layer="12" to-port="0"/>
		<edge from-layer="11" from-port="0" to-layer="12" to-port="1"/>
		<edge from-layer="12" from-port="2" to-layer="14" to-port="0"/>
		<edge from-layer="12" from-port="2" to-layer="186" to-port="1"/>
		<edge from-layer="13" from-port="0" to-layer="14" to-port="1"/>
		<edge from-layer="14" from-port="2" to-layer="17" to-port="0"/>
		<edge from-layer="14" from-port="2" to-layer="18" to-port="0"/>
		<edge from-layer="14" from-port="2" to-layer="16" to-port="0"/>
		<edge from-layer="15" from-port="0" to-layer="16" to-port="1"/>
		<edge from-layer="16" from-port="2" to-layer="18" to-port="1"/>
		<edge from-layer="16" from-port="2" to-layer="17" to-port="1"/>
		<edge from-layer="17" from-port="2" to-layer="25" to-port="0"/>
		<edge from-layer="18" from-port="2" to-layer="20" to-port="0"/>
		<edge from-layer="19" from-port="0" to-layer="20" to-port="1"/>
		<edge from-layer="20" from-port="2" to-layer="22" to-port="0"/>
		<edge from-layer="21" from-port="0" to-layer="22" to-port="1"/>
		<edge from-layer="22" from-port="2" to-layer="24" to-port="0"/>
		<edge from-layer="23" from-port="0" to-layer="24" to-port="1"/>
		<edge from-layer="24" from-port="2" to-layer="25" to-port="1"/>
		<edge from-layer="25" from-port="2" to-layer="26" to-port="1"/>
		<edge from-layer="26" from-port="2" to-layer="28" to-port="0"/>
		<edge from-layer="27" from-port="0" to-layer="28" to-port="1"/>
		<edge from-layer="28" from-port="2" to-layer="30" to-port="0"/>
		<edge from-layer="29" from-port="0" to-layer="30" to-port="1"/>
		<edge from-layer="30" from-port="2" to-layer="32" to-port="0"/>
		<edge from-layer="30" from-port="2" to-layer="146" to-port="1"/>
		<edge from-layer="31" from-port="0" to-layer="32" to-port="1"/>
		<edge from-layer="32" from-port="2" to-layer="36" to-port="0"/>
		<edge from-layer="32" from-port="2" to-layer="35" to-port="0"/>
		<edge from-layer="32" from-port="2" to-layer="34" to-port="0"/>
		<edge from-layer="33" from-port="0" to-layer="34" to-port="1"/>
		<edge from-layer="34" from-port="2" to-layer="36" to-port="1"/>
		<edge from-layer="34" from-port="2" to-layer="35" to-port="1"/>
		<edge from-layer="35" from-port="2" to-layer="43" to-port="0"/>
		<edge from-layer="36" from-port="2" to-layer="38" to-port="0"/>
		<edge from-layer="37" from-port="0" to-layer="38" to-port="1"/>
		<edge from-layer="38" from-port="2" to-layer="40" to-port="0"/>
		<edge from-layer="39" from-port="0" to-layer="40" to-port="1"/>
		<edge from-layer="40" from-port="2" to-layer="42" to-port="0"/>
		<edge from-layer="41" from-port="0" to-layer="42" to-port="1"/>
		<edge from-layer="42" from-port="2" to-layer="43" to-port="1"/>
		<edge from-layer="43" from-port="2" to-layer="44" to-port="1"/>
		<edge from-layer="44" from-port="2" to-layer="46" to-port="0"/>
		<edge from-layer="45" from-port="0" to-layer="46" to-port="1"/>
		<edge from-layer="46" from-port="2" to-layer="48" to-port="0"/>
		<edge from-layer="47" from-port="0" to-layer="48" to-port="1"/>
		<edge from-layer="48" from-port="2" to-layer="50" to-port="0"/>
		<edge from-layer="48" from-port="2" to-layer="106" to-port="1"/>
		<edge from-layer="49" from-port="0" to-layer="50" to-port="1"/>
		<edge from-layer="50" from-port="2" to-layer="54" to-port="0"/>
		<edge from-layer="50" from-port="2" to-layer="53" to-port="0"/>
		<edge from-layer="50" from-port="2" to-layer="52" to-port="0"/>
		<edge from-layer="51" from-port="0" to-layer="52" to-port="1"/>
		<edge from-layer="52" from-port="2" to-layer="54" to-port="1"/>
		<edge from-layer="52" from-port="2" to-layer="53" to-port="1"/>
		<edge from-layer="53" from-port="2" to-layer="61" to-port="0"/>
		<edge from-layer="54" from-port="2" to-layer="56" to-port="0"/>
		<edge from-layer="55" from-port="0" to-layer="56" to-port="1"/>
		<edge from-layer="56" from-port="2" to-layer="58" to-port="0"/>
		<edge from-layer="57" from-port="0" to-layer="58" to-port="1"/>
		<edge from-layer="58" from-port="2" to-layer="60" to-port="0"/>
		<edge from-layer="59" from-port="0" to-layer="60" to-port="1"/>
		<edge from-layer="60" from-port="2" to-layer="61" to-port="1"/>
		<edge from-layer="61" from-port="2" to-layer="62" to-port="1"/>
		<edge from-layer="62" from-port="2" to-layer="64" to-port="0"/>
		<edge from-layer="63" from-port="0" to-layer="64" to-port="1"/>
		<edge from-layer="64" from-port="2" to-layer="66" to-port="0"/>
		<edge from-layer="65" from-port="0" to-layer="66" to-port="1"/>
		<edge from-layer="66" from-port="2" to-layer="68" to-port="0"/>
		<edge from-layer="66" from-port="2" to-layer="90" to-port="0"/>
		<edge from-layer="67" from-port="0" to-layer="90" to-port="1"/>
		<edge from-layer="68" from-port="1" to-layer="71" to-port="0"/>
		<edge from-layer="69" from-port="0" to-layer="71" to-port="1"/>
		<edge from-layer="70" from-port="0" to-layer="71" to-port="2"/>
		<edge from-layer="71" from-port="3" to-layer="75" to-port="0"/>
		<edge from-layer="72" from-port="0" to-layer="75" to-port="1"/>
		<edge from-layer="73" from-port="0" to-layer="75" to-port="2"/>
		<edge from-layer="74" from-port="0" to-layer="75" to-port="3"/>
		<edge from-layer="75" from-port="4" to-layer="77" to-port="0"/>
		<edge from-layer="76" from-port="0" to-layer="77" to-port="1"/>
		<edge from-layer="77" from-port="2" to-layer="81" to-port="0"/>
		<edge from-layer="78" from-port="0" to-layer="81" to-port="1"/>
		<edge from-layer="79" from-port="0" to-layer="81" to-port="2"/>
		<edge from-layer="80" from-port="0" to-layer="81" to-port="3"/>
		<edge from-layer="81" from-port="4" to-layer="84" to-port="0"/>
		<edge from-layer="82" from-port="0" to-layer="84" to-port="1"/>
		<edge from-layer="83" from-port="0" to-layer="84" to-port="2"/>
		<edge from-layer="84" from-port="3" to-layer="88" to-port="0"/>
		<edge from-layer="85" from-port="0" to-layer="88" to-port="1"/>
		<edge from-layer="86" from-port="0" to-layer="88" to-port="2"/>
		<edge from-layer="87" from-port="0" to-layer="88" to-port="3"/>
		<edge from-layer="88" from-port="4" to-layer="89" to-port="0"/>
		<edge from-layer="89" from-port="1" to-layer="90" to-port="2"/>
		<edge from-layer="90" from-port="3" to-layer="93" to-port="0"/>
		<edge from-layer="90" from-port="3" to-layer="94" to-port="0"/>
		<edge from-layer="90" from-port="3" to-layer="92" to-port="0"/>
		<edge from-layer="91" from-port="0" to-layer="92" to-port="1"/>
		<edge from-layer="92" from-port="2" to-layer="93" to-port="1"/>
		<edge from-layer="92" from-port="2" to-layer="94" to-port="1"/>
		<edge from-layer="93" from-port="2" to-layer="101" to-port="0"/>
		<edge from-layer="94" from-port="2" to-layer="96" to-port="0"/>
		<edge from-layer="95" from-port="0" to-layer="96" to-port="1"/>
		<edge from-layer="96" from-port="2" to-layer="98" to-port="0"/>
		<edge from-layer="97" from-port="0" to-layer="98" to-port="1"/>
		<edge from-layer="98" from-port="2" to-layer="100" to-port="0"/>
		<edge from-layer="99" from-port="0" to-layer="100" to-port="1"/>
		<edge from-layer="100" from-port="2" to-layer="101" to-port="1"/>
		<edge from-layer="101" from-port="2" to-layer="102" to-port="1"/>
		<edge from-layer="102" from-port="2" to-layer="104" to-port="0"/>
		<edge from-layer="103" from-port="0" to-layer="104" to-port="1"/>
		<edge from-layer="104" from-port="2" to-layer="105" to-port="0"/>
		<edge from-layer="105" from-port="1" to-layer="106" to-port="0"/>
		<edge from-layer="106" from-port="2" to-layer="108" to-port="0"/>
		<edge from-layer="106" from-port="2" to-layer="130" to-port="0"/>
		<edge from-layer="107" from-port="0" to-layer="130" to-port="1"/>
		<edge from-layer="108" from-port="1" to-layer="111" to-port="0"/>
		<edge from-layer="109" from-port="0" to-layer="111" to-port="1"/>
		<edge from-layer="110" from-port="0" to-layer="111" to-port="2"/>
		<edge from-layer="111" from-port="3" to-layer="115" to-port="0"/>
		<edge from-layer="112" from-port="0" to-layer="115" to-port="1"/>
		<edge from-layer="113" from-port="0" to-layer="115" to-port="2"/>
		<edge from-layer="114" from-port="0" to-layer="115" to-port="3"/>
		<edge from-layer="115" from-port="4" to-layer="117" to-port="0"/>
		<edge from-layer="116" from-port="0" to-layer="117" to-port="1"/>
		<edge from-layer="117" from-port="2" to-layer="121" to-port="0"/>
		<edge from-layer="118" from-port="0" to-layer="121" to-port="1"/>
		<edge from-layer="119" from-port="0" to-layer="121" to-port="2"/>
		<edge from-layer="120" from-port="0" to-layer="121" to-port="3"/>
		<edge from-layer="121" from-port="4" to-layer="124" to-port="0"/>
		<edge from-layer="122" from-port="0" to-layer="124" to-port="1"/>
		<edge from-layer="123" from-port="0" to-layer="124" to-port="2"/>
		<edge from-layer="124" from-port="3" to-layer="128" to-port="0"/>
		<edge from-layer="125" from-port="0" to-layer="128" to-port="1"/>
		<edge from-layer="126" from-port="0" to-layer="128" to-port="2"/>
		<edge from-layer="127" from-port="0" to-layer="128" to-port="3"/>
		<edge from-layer="128" from-port="4" to-layer="129" to-port="0"/>
		<edge from-layer="129" from-port="1" to-layer="130" to-port="2"/>
		<edge from-layer="130" from-port="3" to-layer="133" to-port="0"/>
		<edge from-layer="130" from-port="3" to-layer="134" to-port="0"/>
		<edge from-layer="130" from-port="3" to-layer="132" to-port="0"/>
		<edge from-layer="131" from-port="0" to-layer="132" to-port="1"/>
		<edge from-layer="132" from-port="2" to-layer="134" to-port="1"/>
		<edge from-layer="132" from-port="2" to-layer="133" to-port="1"/>
		<edge from-layer="133" from-port="2" to-layer="141" to-port="0"/>
		<edge from-layer="134" from-port="2" to-layer="136" to-port="0"/>
		<edge from-layer="135" from-port="0" to-layer="136" to-port="1"/>
		<edge from-layer="136" from-port="2" to-layer="138" to-port="0"/>
		<edge from-layer="137" from-port="0" to-layer="138" to-port="1"/>
		<edge from-layer="138" from-port="2" to-layer="140" to-port="0"/>
		<edge from-layer="139" from-port="0" to-layer="140" to-port="1"/>
		<edge from-layer="140" from-port="2" to-layer="141" to-port="1"/>
		<edge from-layer="141" from-port="2" to-layer="142" to-port="1"/>
		<edge from-layer="142" from-port="2" to-layer="144" to-port="0"/>
		<edge from-layer="143" from-port="0" to-layer="144" to-port="1"/>
		<edge from-layer="144" from-port="2" to-layer="145" to-port="0"/>
		<edge from-layer="145" from-port="1" to-layer="146" to-port="0"/>
		<edge from-layer="146" from-port="2" to-layer="170" to-port="0"/>
		<edge from-layer="146" from-port="2" to-layer="148" to-port="0"/>
		<edge from-layer="147" from-port="0" to-layer="170" to-port="1"/>
		<edge from-layer="148" from-port="1" to-layer="151" to-port="0"/>
		<edge from-layer="149" from-port="0" to-layer="151" to-port="1"/>
		<edge from-layer="150" from-port="0" to-layer="151" to-port="2"/>
		<edge from-layer="151" from-port="3" to-layer="155" to-port="0"/>
		<edge from-layer="152" from-port="0" to-layer="155" to-port="1"/>
		<edge from-layer="153" from-port="0" to-layer="155" to-port="2"/>
		<edge from-layer="154" from-port="0" to-layer="155" to-port="3"/>
		<edge from-layer="155" from-port="4" to-layer="157" to-port="0"/>
		<edge from-layer="156" from-port="0" to-layer="157" to-port="1"/>
		<edge from-layer="157" from-port="2" to-layer="161" to-port="0"/>
		<edge from-layer="158" from-port="0" to-layer="161" to-port="1"/>
		<edge from-layer="159" from-port="0" to-layer="161" to-port="2"/>
		<edge from-layer="160" from-port="0" to-layer="161" to-port="3"/>
		<edge from-layer="161" from-port="4" to-layer="164" to-port="0"/>
		<edge from-layer="162" from-port="0" to-layer="164" to-port="1"/>
		<edge from-layer="163" from-port="0" to-layer="164" to-port="2"/>
		<edge from-layer="164" from-port="3" to-layer="168" to-port="0"/>
		<edge from-layer="165" from-port="0" to-layer="168" to-port="1"/>
		<edge from-layer="166" from-port="0" to-layer="168" to-port="2"/>
		<edge from-layer="167" from-port="0" to-layer="168" to-port="3"/>
		<edge from-layer="168" from-port="4" to-layer="169" to-port="0"/>
		<edge from-layer="169" from-port="1" to-layer="170" to-port="2"/>
		<edge from-layer="170" from-port="3" to-layer="172" to-port="0"/>
		<edge from-layer="170" from-port="3" to-layer="173" to-port="0"/>
		<edge from-layer="170" from-port="3" to-layer="174" to-port="0"/>
		<edge from-layer="171" from-port="0" to-layer="172" to-port="1"/>
		<edge from-layer="172" from-port="2" to-layer="174" to-port="1"/>
		<edge from-layer="172" from-port="2" to-layer="173" to-port="1"/>
		<edge from-layer="173" from-port="2" to-layer="181" to-port="0"/>
		<edge from-layer="174" from-port="2" to-layer="176" to-port="0"/>
		<edge from-layer="175" from-port="0" to-layer="176" to-port="1"/>
		<edge from-layer="176" from-port="2" to-layer="178" to-port="0"/>
		<edge from-layer="177" from-port="0" to-layer="178" to-port="1"/>
		<edge from-layer="178" from-port="2" to-layer="180" to-port="0"/>
		<edge from-layer="179" from-port="0" to-layer="180" to-port="1"/>
		<edge from-layer="180" from-port="2" to-layer="181" to-port="1"/>
		<edge from-layer="181" from-port="2" to-layer="182" to-port="1"/>
		<edge from-layer="182" from-port="2" to-layer="184" to-port="0"/>
		<edge from-layer="183" from-port="0" to-layer="184" to-port="1"/>
		<edge from-layer="184" from-port="2" to-layer="185" to-port="0"/>
		<edge from-layer="185" from-port="1" to-layer="186" to-port="0"/>
		<edge from-layer="186" from-port="2" to-layer="188" to-port="0"/>
		<edge from-layer="186" from-port="2" to-layer="210" to-port="0"/>
		<edge from-layer="187" from-port="0" to-layer="210" to-port="1"/>
		<edge from-layer="188" from-port="1" to-layer="191" to-port="0"/>
		<edge from-layer="189" from-port="0" to-layer="191" to-port="1"/>
		<edge from-layer="190" from-port="0" to-layer="191" to-port="2"/>
		<edge from-layer="191" from-port="3" to-layer="195" to-port="0"/>
		<edge from-layer="192" from-port="0" to-layer="195" to-port="1"/>
		<edge from-layer="193" from-port="0" to-layer="195" to-port="2"/>
		<edge from-layer="194" from-port="0" to-layer="195" to-port="3"/>
		<edge from-layer="195" from-port="4" to-layer="197" to-port="0"/>
		<edge from-layer="196" from-port="0" to-layer="197" to-port="1"/>
		<edge from-layer="197" from-port="2" to-layer="201" to-port="0"/>
		<edge from-layer="198" from-port="0" to-layer="201" to-port="1"/>
		<edge from-layer="199" from-port="0" to-layer="201" to-port="2"/>
		<edge from-layer="200" from-port="0" to-layer="201" to-port="3"/>
		<edge from-layer="201" from-port="4" to-layer="204" to-port="0"/>
		<edge from-layer="202" from-port="0" to-layer="204" to-port="1"/>
		<edge from-layer="203" from-port="0" to-layer="204" to-port="2"/>
		<edge from-layer="204" from-port="3" to-layer="208" to-port="0"/>
		<edge from-layer="205" from-port="0" to-layer="208" to-port="1"/>
		<edge from-layer="206" from-port="0" to-layer="208" to-port="2"/>
		<edge from-layer="207" from-port="0" to-layer="208" to-port="3"/>
		<edge from-layer="208" from-port="4" to-layer="209" to-port="0"/>
		<edge from-layer="209" from-port="1" to-layer="210" to-port="2"/>
		<edge from-layer="210" from-port="3" to-layer="212" to-port="0"/>
		<edge from-layer="211" from-port="0" to-layer="212" to-port="1"/>
		<edge from-layer="212" from-port="2" to-layer="213" to-port="0"/>
		<edge from-layer="213" from-port="1" to-layer="215" to-port="0"/>
		<edge from-layer="214" from-port="0" to-layer="215" to-port="1"/>
		<edge from-layer="215" from-port="2" to-layer="216" to-port="0"/>
	</edges>
	<meta_data>
		<MO_version value="2022.1.0-7019-cdb9bec7210-releases/2022/1"/>
		<Runtime_version value="2022.1.0-7019-cdb9bec7210-releases/2022/1"/>
		<legacy_path value="True"/>
		<cli_parameters>
			<caffe_parser_path value="DIR"/>
			<compress_fp16 value="False"/>
			<data_type value="float"/>
			<disable_nhwc_to_nchw value="False"/>
			<disable_omitting_optional value="False"/>
			<disable_resnet_optimization value="False"/>
			<disable_weights_compression value="False"/>
			<enable_concat_optimization value="False"/>
			<enable_flattening_nested_params value="False"/>
			<enable_ssd_gluoncv value="False"/>
			<extensions value="DIR"/>
			<framework value="tf"/>
			<freeze_placeholder_with_value value="{}"/>
			<input_model_is_text value="False"/>
			<input_shape value="[-1,128,128,3]"/>
			<k value="DIR/CustomLayersMapping.xml"/>
			<layout value="()"/>
			<layout_values value="{}"/>
			<legacy_mxnet_model value="False"/>
			<log_level value="ERROR"/>
			<mean_scale_values value="{}"/>
			<mean_values value="()"/>
			<model_name value="saved_model"/>
			<output_dir value="DIR"/>
			<packed_user_shapes value="defaultdict(&lt;class 'list'&gt;, {'input_10': [{'shape': (-1, 128, 128, 3), 'port': None, 'added': True}]})"/>
			<placeholder_data_types value="{}"/>
			<placeholder_shapes value="(-1, 128, 128, 3)"/>
			<progress value="False"/>
			<remove_memory value="False"/>
			<remove_output_softmax value="False"/>
			<reverse_input_channels value="False"/>
			<save_params_from_nd value="False"/>
			<saved_model_dir value="DIR"/>
			<scale_values value="()"/>
			<silent value="False"/>
			<source_layout value="()"/>
			<static_shape value="False"/>
			<stream_output value="False"/>
			<target_layout value="()"/>
			<transform value=""/>
			<use_legacy_frontend value="False"/>
			<use_new_frontend value="False"/>
			<unset unset_cli_parameters="batch, counts, disable_fusing, finegrain_fusing, input, input_checkpoint, input_meta_graph, input_model, input_proto, input_symbol, mean_file, mean_file_offsets, nd_prefix_name, output, pretrained_model_name, saved_model_tags, scale, tensorboard_logdir, tensorflow_custom_layer_libraries, tensorflow_custom_operations_config_update, tensorflow_object_detection_api_pipeline_config, tensorflow_use_custom_operations_config, transformations_config"/>
		</cli_parameters>
	</meta_data>
</net>
